…
snapshot_prefix: "bigdata_faster_rcnn"
average_loss: 100
iter_size: 2
I0411 20:38:02.909716  2805 solver.cpp:81] Creating training net from train_net file: models/coco/VGG16/faster_rcnn_end2end/train.prototxt
I0411 20:38:02.913161  2805 net.cpp:49] Initializing net from parameters: 
name: "VGG_ILSVRC_16_layers"
state {
  phase: TRAIN
}
layer {
  name: "input-data"
  type: "Python"
  top: "data"
  top: "im_info"
  top: "gt_boxes"
  python_param {
    module: "roi_data_layer.layer"
    layer: "RoIDataLayer"
    param_str: "\'num_classes\': 81"
  }
}
layer {
  name: "conv1_1"
  type: "Convolution"
  bottom: "data"
  top: "conv1_1"
  param {
    lr_mult: 0
    decay_mult: 0
  }
  param {
    lr_mult: 0
    decay_mult: 0
  }
  convolution_param {
    num_output: 64
    pad: 1
    kernel_size: 3
  }
}
layer {
  name: "relu1_1"
  type: "ReLU"
  bottom: "conv1_1"
  top: "conv1_1"
}
layer {
  name: "conv1_2"
  type: "Convolution"
  bottom: "conv1_1"
  top: "conv1_2"
  param {
    lr_mult: 0
    decay_mult: 0
  }
  param {
    lr_mult: 0
    decay_mult: 0
  }
  convolution_param {
    num_output: 64
    pad: 1
    kernel_size: 3
  }
}
layer {
  name: "relu1_2"
  type: "ReLU"
  bottom: "conv1_2"
  top: "conv1_2"
}
layer {
  name: "pool1"
  type: "Pooling"
  bottom: "conv1_2"
  top: "pool1"
  pooling_param {
    pool: MAX
    kernel_size: 2
    stride: 2
  }
}
layer {
  name: "conv2_1"
  type: "Convolution"
  bottom: "pool1"
  top: "conv2_1"
  param {
    lr_mult: 0
    decay_mult: 0
  }
  param {
    lr_mult: 0
    decay_mult: 0
  }
  convolution_param {
    num_output: 128
    pad: 1
    kernel_size: 3
  }
}
layer {
  name: "relu2_1"
  type: "ReLU"
  bottom: "conv2_1"
  top: "conv2_1"
}
layer {
  name: "conv2_2"
  type: "Convolution"
  bottom: "conv2_1"
  top: "conv2_2"
  param {
    lr_mult: 0
    decay_mult: 0
  }
  param {
    lr_mult: 0
    decay_mult: 0
  }
  convolution_param {
    num_output: 128
    pad: 1
    kernel_size: 3
  }
}
layer {
  name: "relu2_2"
  type: "ReLU"
  bottom: "conv2_2"
  top: "conv2_2"
}
layer {
  name: "pool2"
  type: "Pooling"
  bottom: "conv2_2"
  top: "pool2"
  pooling_param {
    pool: MAX
    kernel_size: 2
    stride: 2
  }
}
layer {
  name: "conv3_1"
  type: "Convolution"
  bottom: "pool2"
  top: "conv3_1"
  param {
    lr_mult: 1
  }
  param {
    lr_mult: 2
  }
  convolution_param {
    num_output: 256
    pad: 1
    kernel_size: 3
  }
}
layer {
  name: "relu3_1"
  type: "ReLU"
  bottom: "conv3_1"
  top: "conv3_1"
}
layer {
  name: "conv3_2"
  type: "Convolution"
  bottom: "conv3_1"
  top: "conv3_2"
  param {
    lr_mult: 1
  }
  param {
    lr_mult: 2
  }
  convolution_param {
    num_output: 256
    pad: 1
    kernel_size: 3
  }
}
layer {
  name: "relu3_2"
  type: "ReLU"
  bottom: "conv3_2"
  top: "conv3_2"
}
layer {
  name: "conv3_3"
  type: "Convolution"
  bottom: "conv3_2"
  top: "conv3_3"
  param {
    lr_mult: 1
  }
  param {
    lr_mult: 2
  }
  convolution_param {
    num_output: 256
    pad: 1
    kernel_size: 3
  }
}
layer {
  name: "relu3_3"
  type: "ReLU"
  bottom: "conv3_3"
  top: "conv3_3"
}
layer {
  name: "pool3"
  type: "Pooling"
  bottom: "conv3_3"
  top: "pool3"
  pooling_param {
    pool: MAX
    kernel_size: 2
    stride: 2
  }
}
layer {
  name: "conv4_1"
  type: "Convolution"
  bottom: "pool3"
  top: "conv4_1"
  param {
    lr_mult: 1
  }
  param {
    lr_mult: 2
  }
  convolution_param {
    num_output: 512
    pad: 1
    kernel_size: 3
  }
}
layer {
  name: "relu4_1"
  type: "ReLU"
  bottom: "conv4_1"
  top: "conv4_1"
}
layer {
  name: "conv4_2"
  type: "Convolution"
  bottom: "conv4_1"
  top: "conv4_2"
  param {
    lr_mult: 1
  }
  param {
    lr_mult: 2
  }
  convolution_param {
    num_output: 512
    pad: 1
    kernel_size: 3
  }
}
layer {
  name: "relu4_2"
  type: "ReLU"
  bottom: "conv4_2"
  top: "conv4_2"
}
layer {
  name: "conv4_3"
  type: "Convolution"
  bottom: "conv4_2"
  top: "conv4_3"
  param {
    lr_mult: 1
  }
  param {
    lr_mult: 2
  }
  convolution_param {
    num_output: 512
    pad: 1
    kernel_size: 3
  }
}
layer {
  name: "relu4_3"
  type: "ReLU"
  bottom: "conv4_3"
  top: "conv4_3"
}
layer {
  name: "pool4"
  type: "Pooling"
  bottom: "conv4_3"
  top: "pool4"
  pooling_param {
    pool: MAX
    kernel_size: 2
    stride: 2
  }
}
layer {
  name: "conv5_1"
  type: "Convolution"
  bottom: "pool4"
  top: "conv5_1"
  param {
    lr_mult: 1
  }
  param {
    lr_mult: 2
  }
  convolution_param {
    num_output: 512
    pad: 1
    kernel_size: 3
  }
}
layer {
  name: "relu5_1"
  type: "ReLU"
  bottom: "conv5_1"
  top: "conv5_1"
}
layer {
  name: "conv5_2"
  type: "Convolution"
  bottom: "conv5_1"
  top: "conv5_2"
  param {
    lr_mult: 1
  }
  param {
    lr_mult: 2
  }
  convolution_param {
    num_output: 512
    pad: 1
    kernel_size: 3
  }
}
layer {
  name: "relu5_2"
  type: "ReLU"
  bottom: "conv5_2"
  top: "conv5_2"
}
layer {
  name: "conv5_3"
  type: "Convolution"
  bottom: "conv5_2"
  top: "conv5_3"
  param {
    lr_mult: 1
  }
  param {
    lr_mult: 2
  }
  convolution_param {
    num_output: 512
    pad: 1
    kernel_size: 3
  }
}
layer {
  name: "relu5_3"
  type: "ReLU"
  bottom: "conv5_3"
  top: "conv5_3"
}
layer {
  name: "rpn_conv/3x3"
  type: "Convolution"
  bottom: "conv5_3"
  top: "rpn/output"
  param {
    lr_mult: 1
  }
  param {
    lr_mult: 2
  }
  convolution_param {
    num_output: 512
    pad: 1
    kernel_size: 3
    stride: 1
    weight_filler {
      type: "gaussian"
      std: 0.01
    }
    bias_filler {
      type: "constant"
      value: 0
    }
  }
}
layer {
  name: "rpn_relu/3x3"
  type: "ReLU"
  bottom: "rpn/output"
  top: "rpn/output"
}
layer {
  name: "rpn_cls_score"
  type: "Convolution"
  bottom: "rpn/output"
  top: "rpn_cls_score"
  param {
    lr_mult: 1
  }
  param {
    lr_mult: 2
  }
  convolution_param {
    num_output: 24
    pad: 0
    kernel_size: 1
    stride: 1
    weight_filler {
      type: "gaussian"
      std: 0.01
    }
    bias_filler {
      type: "constant"
      value: 0
    }
  }
}
layer {
  name: "rpn_bbox_pred"
  type: "Convolution"
  bottom: "rpn/output"
  top: "rpn_bbox_pred"
  param {
    lr_mult: 1
  }
  param {
    lr_mult: 2
  }
  convolution_param {
    num_output: 48
    pad: 0
    kernel_size: 1
    stride: 1
    weight_filler {
      type: "gaussian"
      std: 0.01
    }
    bias_filler {
      type: "constant"
      value: 0
    }
  }
}
layer {
  name: "rpn_cls_score_reshape"
  type: "Reshape"
  bottom: "rpn_cls_score"
  top: "rpn_cls_score_reshape"
  reshape_param {
    shape {
      dim: 0
      dim: 2
      dim: -1
      dim: 0
    }
  }
}
layer {
  name: "rpn-data"
  type: "Python"
  bottom: "rpn_cls_score"
  bottom: "gt_boxes"
  bottom: "im_info"
  bottom: "data"
  top: "rpn_labels"
  top: "rpn_bbox_targets"
  top: "rpn_bbox_inside_weights"
  top: "rpn_bbox_outside_weights"
  python_param {
    module: "rpn.anchor_target_layer"
    layer: "AnchorTargetLayer"
    param_str: "\'feat_stride\': 16 \n\'scales\': !!python/tuple [4, 8, 16, 32]"
  }
}
layer {
  name: "rpn_loss_cls"
  type: "SoftmaxWithLoss"
  bottom: "rpn_cls_score_reshape"
  bottom: "rpn_labels"
  top: "rpn_cls_loss"
  loss_weight: 1
  propagate_down: true
  propagate_down: false
  loss_param {
    ignore_label: -1
    normalize: true
  }
}
layer {
  name: "rpn_loss_bbox"
  type: "SmoothL1Loss"
  bottom: "rpn_bbox_pred"
  bottom: "rpn_bbox_targets"
  bottom: "rpn_bbox_inside_weights"
  bottom: "rpn_bbox_outside_weights"
  top: "rpn_loss_bbox"
  loss_weight: 1
  smooth_l1_loss_param {
    sigma: 3
  }
}
layer {
  name: "rpn_cls_prob"
  type: "Softmax"
  bottom: "rpn_cls_score_reshape"
  top: "rpn_cls_prob"
}
layer {
  name: "rpn_cls_prob_reshape"
  type: "Reshape"
  bottom: "rpn_cls_prob"
  top: "rpn_cls_prob_reshape"
  reshape_param {
    shape {
      dim: 0
      dim: 24
      dim: -1
      dim: 0
    }
  }
}
layer {
  name: "proposal"
  type: "Python"
  bottom: "rpn_cls_prob_reshape"
  bottom: "rpn_bbox_pred"
  bottom: "im_info"
  top: "rpn_rois"
  python_param {
    module: "rpn.proposal_layer"
    layer: "ProposalLayer"
    param_str: "\'feat_stride\': 16 \n\'scales\': !!python/tuple [4, 8, 16, 32]"
  }
}
layer {
  name: "roi-data"
  type: "Python"
  bottom: "rpn_rois"
  bottom: "gt_boxes"
  top: "rois"
  top: "labels"
  top: "bbox_targets"
  top: "bbox_inside_weights"
  top: "bbox_outside_weights"
  python_param {
    module: "rpn.proposal_target_layer"
    layer: "ProposalTargetLayer"
    param_str: "\'num_classes\': 81"
  }
}
layer {
  name: "roi_pool5"
  type: "ROIPooling"
  bottom: "conv5_3"
  bottom: "rois"
  top: "pool5"
  roi_pooling_param {
    pooled_h: 7
    pooled_w: 7
    spatial_scale: 0.0625
  }
}
layer {
  name: "fc6"
  type: "InnerProduct"
  bottom: "pool5"
  top: "fc6"
  param {
    lr_mult: 1
  }
  param {
    lr_mult: 2
  }
  inner_product_param {
    num_output: 4096
  }
}
layer {
  name: "relu6"
  type: "ReLU"
  bottom: "fc6"
  top: "fc6"
}
layer {
  name: "fc7"
  type: "InnerProduct"
  bottom: "fc6"
  top: "fc7"
  param {
    lr_mult: 1
  }
  param {
    lr_mult: 2
  }
  inner_product_param {
    num_output: 4096
  }
}
layer {
  name: "relu7"
  type: "ReLU"
  bottom: "fc7"
  top: "fc7"
}
layer {
  name: "cls_score"
  type: "InnerProduct"
  bottom: "fc7"
  top: "cls_score"
  param {
    lr_mult: 1
  }
  param {
    lr_mult: 2
  }
  inner_product_param {
    num_output: 81
    weight_filler {
      type: "gaussian"
      std: 0.01
    }
    bias_filler {
      type: "constant"
      value: 0
    }
  }
}
layer {
  name: "bbox_pred"
  type: "InnerProduct"
  bottom: "fc7"
  top: "bbox_pred"
  param {
    lr_mult: 1
  }
  param {
    lr_mult: 2
  }
  inner_product_param {
    num_output: 324
    weight_filler {
      type: "gaussian"
      std: 0.001
    }
    bias_filler {
      type: "constant"
      value: 0
    }
  }
}
layer {
  name: "loss_cls"
  type: "SoftmaxWithLoss"
  bottom: "cls_score"
  bottom: "labels"
  top: "loss_cls"
  loss_weight: 1
  propagate_down: true
  propagate_down: false
}
layer {
  name: "loss_bbox"
  type: "SmoothL1Loss"
  bottom: "bbox_pred"
  bottom: "bbox_targets"
  bottom: "bbox_inside_weights"
  bottom: "bbox_outside_weights"
  top: "loss_bbox"
  loss_weight: 1
}
I0411 20:38:02.916203  2805 layer_factory.hpp:77] Creating layer input-data
I0411 20:38:03.034013  2805 net.cpp:106] Creating Layer input-data
I0411 20:38:03.034045  2805 net.cpp:411] input-data -> data
I0411 20:38:03.034054  2805 net.cpp:411] input-data -> im_info
I0411 20:38:03.034060  2805 net.cpp:411] input-data -> gt_boxes
RoiDataLayer: name_to_top: {'gt_boxes': 2, 'data': 0, 'im_info': 1}
I0411 20:38:03.110697  2805 net.cpp:150] Setting up input-data
I0411 20:38:03.110725  2805 net.cpp:157] Top shape: 1 3 600 1000 (1800000)
I0411 20:38:03.110743  2805 net.cpp:157] Top shape: 1 3 (3)
I0411 20:38:03.110754  2805 net.cpp:157] Top shape: 1 4 (4)
I0411 20:38:03.110764  2805 net.cpp:165] Memory required for data: 7200028
I0411 20:38:03.110775  2805 layer_factory.hpp:77] Creating layer data_input-data_0_split
I0411 20:38:03.111456  2805 net.cpp:106] Creating Layer data_input-data_0_split
I0411 20:38:03.111469  2805 net.cpp:454] data_input-data_0_split <- data
I0411 20:38:03.111482  2805 net.cpp:411] data_input-data_0_split -> data_input-data_0_split_0
I0411 20:38:03.111500  2805 net.cpp:411] data_input-data_0_split -> data_input-data_0_split_1
I0411 20:38:03.112473  2805 net.cpp:150] Setting up data_input-data_0_split
I0411 20:38:03.112485  2805 net.cpp:157] Top shape: 1 3 600 1000 (1800000)
I0411 20:38:03.112498  2805 net.cpp:157] Top shape: 1 3 600 1000 (1800000)
I0411 20:38:03.112506  2805 net.cpp:165] Memory required for data: 21600028
I0411 20:38:03.112515  2805 layer_factory.hpp:77] Creating layer im_info_input-data_1_split
I0411 20:38:03.112529  2805 net.cpp:106] Creating Layer im_info_input-data_1_split
I0411 20:38:03.112539  2805 net.cpp:454] im_info_input-data_1_split <- im_info
I0411 20:38:03.112550  2805 net.cpp:411] im_info_input-data_1_split -> im_info_input-data_1_split_0
I0411 20:38:03.112563  2805 net.cpp:411] im_info_input-data_1_split -> im_info_input-data_1_split_1
I0411 20:38:03.112603  2805 net.cpp:150] Setting up im_info_input-data_1_split
I0411 20:38:03.112615  2805 net.cpp:157] Top shape: 1 3 (3)
I0411 20:38:03.112625  2805 net.cpp:157] Top shape: 1 3 (3)
I0411 20:38:03.112633  2805 net.cpp:165] Memory required for data: 21600052
I0411 20:38:03.112643  2805 layer_factory.hpp:77] Creating layer gt_boxes_input-data_2_split
I0411 20:38:03.112654  2805 net.cpp:106] Creating Layer gt_boxes_input-data_2_split
I0411 20:38:03.112663  2805 net.cpp:454] gt_boxes_input-data_2_split <- gt_boxes
I0411 20:38:03.112675  2805 net.cpp:411] gt_boxes_input-data_2_split -> gt_boxes_input-data_2_split_0
I0411 20:38:03.112689  2805 net.cpp:411] gt_boxes_input-data_2_split -> gt_boxes_input-data_2_split_1
I0411 20:38:03.112727  2805 net.cpp:150] Setting up gt_boxes_input-data_2_split
I0411 20:38:03.112740  2805 net.cpp:157] Top shape: 1 4 (4)
I0411 20:38:03.112751  2805 net.cpp:157] Top shape: 1 4 (4)
I0411 20:38:03.112758  2805 net.cpp:165] Memory required for data: 21600084
I0411 20:38:03.112767  2805 layer_factory.hpp:77] Creating layer conv1_1
I0411 20:38:03.112785  2805 net.cpp:106] Creating Layer conv1_1
I0411 20:38:03.112797  2805 net.cpp:454] conv1_1 <- data_input-data_0_split_0
I0411 20:38:03.112809  2805 net.cpp:411] conv1_1 -> conv1_1
I0411 20:38:03.698832  2805 net.cpp:150] Setting up conv1_1
I0411 20:38:03.698868  2805 net.cpp:157] Top shape: 1 64 600 1000 (38400000)
I0411 20:38:03.698881  2805 net.cpp:165] Memory required for data: 175200084
I0411 20:38:03.698899  2805 layer_factory.hpp:77] Creating layer relu1_1
I0411 20:38:03.698915  2805 net.cpp:106] Creating Layer relu1_1
I0411 20:38:03.698921  2805 net.cpp:454] relu1_1 <- conv1_1
I0411 20:38:03.698930  2805 net.cpp:397] relu1_1 -> conv1_1 (in-place)
I0411 20:38:03.699187  2805 net.cpp:150] Setting up relu1_1
I0411 20:38:03.699203  2805 net.cpp:157] Top shape: 1 64 600 1000 (38400000)
I0411 20:38:03.699208  2805 net.cpp:165] Memory required for data: 328800084
I0411 20:38:03.699214  2805 layer_factory.hpp:77] Creating layer conv1_2
I0411 20:38:03.699226  2805 net.cpp:106] Creating Layer conv1_2
I0411 20:38:03.699234  2805 net.cpp:454] conv1_2 <- conv1_1
I0411 20:38:03.699242  2805 net.cpp:411] conv1_2 -> conv1_2
I0411 20:38:03.701519  2805 net.cpp:150] Setting up conv1_2
I0411 20:38:03.701541  2805 net.cpp:157] Top shape: 1 64 600 1000 (38400000)
I0411 20:38:03.701548  2805 net.cpp:165] Memory required for data: 482400084
I0411 20:38:03.701562  2805 layer_factory.hpp:77] Creating layer relu1_2
I0411 20:38:03.701575  2805 net.cpp:106] Creating Layer relu1_2
I0411 20:38:03.701581  2805 net.cpp:454] relu1_2 <- conv1_2
I0411 20:38:03.701589  2805 net.cpp:397] relu1_2 -> conv1_2 (in-place)
I0411 20:38:03.701746  2805 net.cpp:150] Setting up relu1_2
I0411 20:38:03.701854  2805 net.cpp:157] Top shape: 1 64 600 1000 (38400000)
I0411 20:38:03.701874  2805 net.cpp:165] Memory required for data: 636000084
I0411 20:38:03.701889  2805 layer_factory.hpp:77] Creating layer pool1
I0411 20:38:03.701910  2805 net.cpp:106] Creating Layer pool1
I0411 20:38:03.701927  2805 net.cpp:454] pool1 <- conv1_2
I0411 20:38:03.701948  2805 net.cpp:411] pool1 -> pool1
I0411 20:38:03.702590  2805 net.cpp:150] Setting up pool1
I0411 20:38:03.702616  2805 net.cpp:157] Top shape: 1 64 300 500 (9600000)
I0411 20:38:03.702626  2805 net.cpp:165] Memory required for data: 674400084
I0411 20:38:03.702636  2805 layer_factory.hpp:77] Creating layer conv2_1
I0411 20:38:03.702654  2805 net.cpp:106] Creating Layer conv2_1
I0411 20:38:03.702664  2805 net.cpp:454] conv2_1 <- pool1
I0411 20:38:03.702677  2805 net.cpp:411] conv2_1 -> conv2_1
I0411 20:38:03.704655  2805 net.cpp:150] Setting up conv2_1
I0411 20:38:03.704671  2805 net.cpp:157] Top shape: 1 128 300 500 (19200000)
I0411 20:38:03.704677  2805 net.cpp:165] Memory required for data: 751200084
I0411 20:38:03.704689  2805 layer_factory.hpp:77] Creating layer relu2_1
I0411 20:38:03.704699  2805 net.cpp:106] Creating Layer relu2_1
I0411 20:38:03.704704  2805 net.cpp:454] relu2_1 <- conv2_1
I0411 20:38:03.704712  2805 net.cpp:397] relu2_1 -> conv2_1 (in-place)
I0411 20:38:03.704967  2805 net.cpp:150] Setting up relu2_1
I0411 20:38:03.704982  2805 net.cpp:157] Top shape: 1 128 300 500 (19200000)
I0411 20:38:03.704988  2805 net.cpp:165] Memory required for data: 828000084
I0411 20:38:03.704993  2805 layer_factory.hpp:77] Creating layer conv2_2
I0411 20:38:03.705004  2805 net.cpp:106] Creating Layer conv2_2
I0411 20:38:03.705010  2805 net.cpp:454] conv2_2 <- conv2_1
I0411 20:38:03.705019  2805 net.cpp:411] conv2_2 -> conv2_2
I0411 20:38:03.706701  2805 net.cpp:150] Setting up conv2_2
I0411 20:38:03.706718  2805 net.cpp:157] Top shape: 1 128 300 500 (19200000)
I0411 20:38:03.706725  2805 net.cpp:165] Memory required for data: 904800084
I0411 20:38:03.706735  2805 layer_factory.hpp:77] Creating layer relu2_2
I0411 20:38:03.706744  2805 net.cpp:106] Creating Layer relu2_2
I0411 20:38:03.706751  2805 net.cpp:454] relu2_2 <- conv2_2
I0411 20:38:03.706759  2805 net.cpp:397] relu2_2 -> conv2_2 (in-place)
I0411 20:38:03.707047  2805 net.cpp:150] Setting up relu2_2
I0411 20:38:03.707063  2805 net.cpp:157] Top shape: 1 128 300 500 (19200000)
I0411 20:38:03.707070  2805 net.cpp:165] Memory required for data: 981600084
I0411 20:38:03.707078  2805 layer_factory.hpp:77] Creating layer pool2
I0411 20:38:03.707088  2805 net.cpp:106] Creating Layer pool2
I0411 20:38:03.707095  2805 net.cpp:454] pool2 <- conv2_2
I0411 20:38:03.707104  2805 net.cpp:411] pool2 -> pool2
I0411 20:38:03.707150  2805 net.cpp:150] Setting up pool2
I0411 20:38:03.707160  2805 net.cpp:157] Top shape: 1 128 150 250 (4800000)
I0411 20:38:03.707167  2805 net.cpp:165] Memory required for data: 1000800084
I0411 20:38:03.707173  2805 layer_factory.hpp:77] Creating layer conv3_1
I0411 20:38:03.707185  2805 net.cpp:106] Creating Layer conv3_1
I0411 20:38:03.707191  2805 net.cpp:454] conv3_1 <- pool2
I0411 20:38:03.707201  2805 net.cpp:411] conv3_1 -> conv3_1
I0411 20:38:03.708884  2805 net.cpp:150] Setting up conv3_1
I0411 20:38:03.708901  2805 net.cpp:157] Top shape: 1 256 150 250 (9600000)
I0411 20:38:03.708909  2805 net.cpp:165] Memory required for data: 1039200084
I0411 20:38:03.708923  2805 layer_factory.hpp:77] Creating layer relu3_1
I0411 20:38:03.708933  2805 net.cpp:106] Creating Layer relu3_1
I0411 20:38:03.708940  2805 net.cpp:454] relu3_1 <- conv3_1
I0411 20:38:03.708950  2805 net.cpp:397] relu3_1 -> conv3_1 (in-place)
I0411 20:38:03.709127  2805 net.cpp:150] Setting up relu3_1
I0411 20:38:03.709138  2805 net.cpp:157] Top shape: 1 256 150 250 (9600000)
I0411 20:38:03.709146  2805 net.cpp:165] Memory required for data: 1077600084
I0411 20:38:03.709152  2805 layer_factory.hpp:77] Creating layer conv3_2
I0411 20:38:03.709167  2805 net.cpp:106] Creating Layer conv3_2
I0411 20:38:03.709173  2805 net.cpp:454] conv3_2 <- conv3_1
I0411 20:38:03.709183  2805 net.cpp:411] conv3_2 -> conv3_2
I0411 20:38:03.711822  2805 net.cpp:150] Setting up conv3_2
I0411 20:38:03.711860  2805 net.cpp:157] Top shape: 1 256 150 250 (9600000)
I0411 20:38:03.711869  2805 net.cpp:165] Memory required for data: 1116000084
I0411 20:38:03.711884  2805 layer_factory.hpp:77] Creating layer relu3_2
I0411 20:38:03.711899  2805 net.cpp:106] Creating Layer relu3_2
I0411 20:38:03.711907  2805 net.cpp:454] relu3_2 <- conv3_2
I0411 20:38:03.711917  2805 net.cpp:397] relu3_2 -> conv3_2 (in-place)
I0411 20:38:03.712271  2805 net.cpp:150] Setting up relu3_2
I0411 20:38:03.712294  2805 net.cpp:157] Top shape: 1 256 150 250 (9600000)
I0411 20:38:03.712301  2805 net.cpp:165] Memory required for data: 1154400084
I0411 20:38:03.712311  2805 layer_factory.hpp:77] Creating layer conv3_3
I0411 20:38:03.712327  2805 net.cpp:106] Creating Layer conv3_3
I0411 20:38:03.712337  2805 net.cpp:454] conv3_3 <- conv3_2
I0411 20:38:03.712345  2805 net.cpp:411] conv3_3 -> conv3_3
I0411 20:38:03.717223  2805 net.cpp:150] Setting up conv3_3
I0411 20:38:03.717247  2805 net.cpp:157] Top shape: 1 256 150 250 (9600000)
I0411 20:38:03.717252  2805 net.cpp:165] Memory required for data: 1192800084
I0411 20:38:03.717263  2805 layer_factory.hpp:77] Creating layer relu3_3
I0411 20:38:03.717274  2805 net.cpp:106] Creating Layer relu3_3
I0411 20:38:03.717280  2805 net.cpp:454] relu3_3 <- conv3_3
I0411 20:38:03.717288  2805 net.cpp:397] relu3_3 -> conv3_3 (in-place)
I0411 20:38:03.717504  2805 net.cpp:150] Setting up relu3_3
I0411 20:38:03.717516  2805 net.cpp:157] Top shape: 1 256 150 250 (9600000)
I0411 20:38:03.717521  2805 net.cpp:165] Memory required for data: 1231200084
I0411 20:38:03.717526  2805 layer_factory.hpp:77] Creating layer pool3
I0411 20:38:03.717535  2805 net.cpp:106] Creating Layer pool3
I0411 20:38:03.717540  2805 net.cpp:454] pool3 <- conv3_3
I0411 20:38:03.717547  2805 net.cpp:411] pool3 -> pool3
I0411 20:38:03.717583  2805 net.cpp:150] Setting up pool3
I0411 20:38:03.717592  2805 net.cpp:157] Top shape: 1 256 75 125 (2400000)
I0411 20:38:03.717597  2805 net.cpp:165] Memory required for data: 1240800084
I0411 20:38:03.717600  2805 layer_factory.hpp:77] Creating layer conv4_1
I0411 20:38:03.717609  2805 net.cpp:106] Creating Layer conv4_1
I0411 20:38:03.717614  2805 net.cpp:454] conv4_1 <- pool3
I0411 20:38:03.717622  2805 net.cpp:411] conv4_1 -> conv4_1
I0411 20:38:03.720793  2805 net.cpp:150] Setting up conv4_1
I0411 20:38:03.720825  2805 net.cpp:157] Top shape: 1 512 75 125 (4800000)
I0411 20:38:03.720831  2805 net.cpp:165] Memory required for data: 1260000084
I0411 20:38:03.720841  2805 layer_factory.hpp:77] Creating layer relu4_1
I0411 20:38:03.720854  2805 net.cpp:106] Creating Layer relu4_1
I0411 20:38:03.720860  2805 net.cpp:454] relu4_1 <- conv4_1
I0411 20:38:03.720868  2805 net.cpp:397] relu4_1 -> conv4_1 (in-place)
I0411 20:38:03.721099  2805 net.cpp:150] Setting up relu4_1
I0411 20:38:03.721110  2805 net.cpp:157] Top shape: 1 512 75 125 (4800000)
I0411 20:38:03.721115  2805 net.cpp:165] Memory required for data: 1279200084
I0411 20:38:03.721138  2805 layer_factory.hpp:77] Creating layer conv4_2
I0411 20:38:03.721148  2805 net.cpp:106] Creating Layer conv4_2
I0411 20:38:03.721153  2805 net.cpp:454] conv4_2 <- conv4_1
I0411 20:38:03.721174  2805 net.cpp:411] conv4_2 -> conv4_2
I0411 20:38:03.725432  2805 net.cpp:150] Setting up conv4_2
I0411 20:38:03.725457  2805 net.cpp:157] Top shape: 1 512 75 125 (4800000)
I0411 20:38:03.725463  2805 net.cpp:165] Memory required for data: 1298400084
I0411 20:38:03.725476  2805 layer_factory.hpp:77] Creating layer relu4_2
I0411 20:38:03.725487  2805 net.cpp:106] Creating Layer relu4_2
I0411 20:38:03.725493  2805 net.cpp:454] relu4_2 <- conv4_2
I0411 20:38:03.725500  2805 net.cpp:397] relu4_2 -> conv4_2 (in-place)
I0411 20:38:03.726186  2805 net.cpp:150] Setting up relu4_2
I0411 20:38:03.726218  2805 net.cpp:157] Top shape: 1 512 75 125 (4800000)
I0411 20:38:03.726225  2805 net.cpp:165] Memory required for data: 1317600084
I0411 20:38:03.726244  2805 layer_factory.hpp:77] Creating layer conv4_3
I0411 20:38:03.726258  2805 net.cpp:106] Creating Layer conv4_3
I0411 20:38:03.726263  2805 net.cpp:454] conv4_3 <- conv4_2
I0411 20:38:03.726270  2805 net.cpp:411] conv4_3 -> conv4_3
I0411 20:38:03.735532  2805 net.cpp:150] Setting up conv4_3
I0411 20:38:03.735559  2805 net.cpp:157] Top shape: 1 512 75 125 (4800000)
I0411 20:38:03.735584  2805 net.cpp:165] Memory required for data: 1336800084
I0411 20:38:03.735607  2805 layer_factory.hpp:77] Creating layer relu4_3
I0411 20:38:03.735618  2805 net.cpp:106] Creating Layer relu4_3
I0411 20:38:03.735625  2805 net.cpp:454] relu4_3 <- conv4_3
I0411 20:38:03.735631  2805 net.cpp:397] relu4_3 -> conv4_3 (in-place)
I0411 20:38:03.736287  2805 net.cpp:150] Setting up relu4_3
I0411 20:38:03.736299  2805 net.cpp:157] Top shape: 1 512 75 125 (4800000)
I0411 20:38:03.736304  2805 net.cpp:165] Memory required for data: 1356000084
I0411 20:38:03.736328  2805 layer_factory.hpp:77] Creating layer pool4
I0411 20:38:03.736336  2805 net.cpp:106] Creating Layer pool4
I0411 20:38:03.736341  2805 net.cpp:454] pool4 <- conv4_3
I0411 20:38:03.736348  2805 net.cpp:411] pool4 -> pool4
I0411 20:38:03.736413  2805 net.cpp:150] Setting up pool4
I0411 20:38:03.736420  2805 net.cpp:157] Top shape: 1 512 38 63 (1225728)
I0411 20:38:03.736424  2805 net.cpp:165] Memory required for data: 1360902996
I0411 20:38:03.736428  2805 layer_factory.hpp:77] Creating layer conv5_1
I0411 20:38:03.736456  2805 net.cpp:106] Creating Layer conv5_1
I0411 20:38:03.736461  2805 net.cpp:454] conv5_1 <- pool4
I0411 20:38:03.736469  2805 net.cpp:411] conv5_1 -> conv5_1
I0411 20:38:03.740890  2805 net.cpp:150] Setting up conv5_1
I0411 20:38:03.740936  2805 net.cpp:157] Top shape: 1 512 38 63 (1225728)
I0411 20:38:03.740942  2805 net.cpp:165] Memory required for data: 1365805908
I0411 20:38:03.740953  2805 layer_factory.hpp:77] Creating layer relu5_1
I0411 20:38:03.740965  2805 net.cpp:106] Creating Layer relu5_1
I0411 20:38:03.740972  2805 net.cpp:454] relu5_1 <- conv5_1
I0411 20:38:03.740979  2805 net.cpp:397] relu5_1 -> conv5_1 (in-place)
I0411 20:38:03.741114  2805 net.cpp:150] Setting up relu5_1
I0411 20:38:03.741122  2805 net.cpp:157] Top shape: 1 512 38 63 (1225728)
I0411 20:38:03.741127  2805 net.cpp:165] Memory required for data: 1370708820
I0411 20:38:03.741150  2805 layer_factory.hpp:77] Creating layer conv5_2
I0411 20:38:03.741159  2805 net.cpp:106] Creating Layer conv5_2
I0411 20:38:03.741164  2805 net.cpp:454] conv5_2 <- conv5_1
I0411 20:38:03.741171  2805 net.cpp:411] conv5_2 -> conv5_2
I0411 20:38:03.746211  2805 net.cpp:150] Setting up conv5_2
I0411 20:38:03.746264  2805 net.cpp:157] Top shape: 1 512 38 63 (1225728)
I0411 20:38:03.746270  2805 net.cpp:165] Memory required for data: 1375611732
I0411 20:38:03.746282  2805 layer_factory.hpp:77] Creating layer relu5_2
I0411 20:38:03.746296  2805 net.cpp:106] Creating Layer relu5_2
I0411 20:38:03.746304  2805 net.cpp:454] relu5_2 <- conv5_2
I0411 20:38:03.746325  2805 net.cpp:397] relu5_2 -> conv5_2 (in-place)
I0411 20:38:03.746574  2805 net.cpp:150] Setting up relu5_2
I0411 20:38:03.746585  2805 net.cpp:157] Top shape: 1 512 38 63 (1225728)
I0411 20:38:03.746608  2805 net.cpp:165] Memory required for data: 1380514644
I0411 20:38:03.746613  2805 layer_factory.hpp:77] Creating layer conv5_3
I0411 20:38:03.746629  2805 net.cpp:106] Creating Layer conv5_3
I0411 20:38:03.746634  2805 net.cpp:454] conv5_3 <- conv5_2
I0411 20:38:03.746642  2805 net.cpp:411] conv5_3 -> conv5_3
I0411 20:38:03.751405  2805 net.cpp:150] Setting up conv5_3
I0411 20:38:03.751431  2805 net.cpp:157] Top shape: 1 512 38 63 (1225728)
I0411 20:38:03.751436  2805 net.cpp:165] Memory required for data: 1385417556
I0411 20:38:03.751446  2805 layer_factory.hpp:77] Creating layer relu5_3
I0411 20:38:03.751456  2805 net.cpp:106] Creating Layer relu5_3
I0411 20:38:03.751462  2805 net.cpp:454] relu5_3 <- conv5_3
I0411 20:38:03.751471  2805 net.cpp:397] relu5_3 -> conv5_3 (in-place)
I0411 20:38:03.751729  2805 net.cpp:150] Setting up relu5_3
I0411 20:38:03.751740  2805 net.cpp:157] Top shape: 1 512 38 63 (1225728)
I0411 20:38:03.751745  2805 net.cpp:165] Memory required for data: 1390320468
I0411 20:38:03.751751  2805 layer_factory.hpp:77] Creating layer conv5_3_relu5_3_0_split
I0411 20:38:03.751765  2805 net.cpp:106] Creating Layer conv5_3_relu5_3_0_split
I0411 20:38:03.751770  2805 net.cpp:454] conv5_3_relu5_3_0_split <- conv5_3
I0411 20:38:03.751775  2805 net.cpp:411] conv5_3_relu5_3_0_split -> conv5_3_relu5_3_0_split_0
I0411 20:38:03.751783  2805 net.cpp:411] conv5_3_relu5_3_0_split -> conv5_3_relu5_3_0_split_1
I0411 20:38:03.751821  2805 net.cpp:150] Setting up conv5_3_relu5_3_0_split
I0411 20:38:03.751827  2805 net.cpp:157] Top shape: 1 512 38 63 (1225728)
I0411 20:38:03.751832  2805 net.cpp:157] Top shape: 1 512 38 63 (1225728)
I0411 20:38:03.751837  2805 net.cpp:165] Memory required for data: 1400126292
I0411 20:38:03.751842  2805 layer_factory.hpp:77] Creating layer rpn_conv/3x3
I0411 20:38:03.751857  2805 net.cpp:106] Creating Layer rpn_conv/3x3
I0411 20:38:03.751863  2805 net.cpp:454] rpn_conv/3x3 <- conv5_3_relu5_3_0_split_0
I0411 20:38:03.751869  2805 net.cpp:411] rpn_conv/3x3 -> rpn/output
I0411 20:38:03.812145  2805 net.cpp:150] Setting up rpn_conv/3x3
I0411 20:38:03.812170  2805 net.cpp:157] Top shape: 1 512 38 63 (1225728)
I0411 20:38:03.812193  2805 net.cpp:165] Memory required for data: 1405029204
I0411 20:38:03.812203  2805 layer_factory.hpp:77] Creating layer rpn_relu/3x3
I0411 20:38:03.812214  2805 net.cpp:106] Creating Layer rpn_relu/3x3
I0411 20:38:03.812221  2805 net.cpp:454] rpn_relu/3x3 <- rpn/output
I0411 20:38:03.812227  2805 net.cpp:397] rpn_relu/3x3 -> rpn/output (in-place)
I0411 20:38:03.812379  2805 net.cpp:150] Setting up rpn_relu/3x3
I0411 20:38:03.812388  2805 net.cpp:157] Top shape: 1 512 38 63 (1225728)
I0411 20:38:03.812392  2805 net.cpp:165] Memory required for data: 1409932116
I0411 20:38:03.812397  2805 layer_factory.hpp:77] Creating layer rpn/output_rpn_relu/3x3_0_split
I0411 20:38:03.812422  2805 net.cpp:106] Creating Layer rpn/output_rpn_relu/3x3_0_split
I0411 20:38:03.812427  2805 net.cpp:454] rpn/output_rpn_relu/3x3_0_split <- rpn/output
I0411 20:38:03.812434  2805 net.cpp:411] rpn/output_rpn_relu/3x3_0_split -> rpn/output_rpn_relu/3x3_0_split_0
I0411 20:38:03.812454  2805 net.cpp:411] rpn/output_rpn_relu/3x3_0_split -> rpn/output_rpn_relu/3x3_0_split_1
I0411 20:38:03.812489  2805 net.cpp:150] Setting up rpn/output_rpn_relu/3x3_0_split
I0411 20:38:03.812496  2805 net.cpp:157] Top shape: 1 512 38 63 (1225728)
I0411 20:38:03.812501  2805 net.cpp:157] Top shape: 1 512 38 63 (1225728)
I0411 20:38:03.812518  2805 net.cpp:165] Memory required for data: 1419737940
I0411 20:38:03.812522  2805 layer_factory.hpp:77] Creating layer rpn_cls_score
I0411 20:38:03.812566  2805 net.cpp:106] Creating Layer rpn_cls_score
I0411 20:38:03.812572  2805 net.cpp:454] rpn_cls_score <- rpn/output_rpn_relu/3x3_0_split_0
I0411 20:38:03.812578  2805 net.cpp:411] rpn_cls_score -> rpn_cls_score
I0411 20:38:03.813680  2805 net.cpp:150] Setting up rpn_cls_score
I0411 20:38:03.813693  2805 net.cpp:157] Top shape: 1 24 38 63 (57456)
I0411 20:38:03.813697  2805 net.cpp:165] Memory required for data: 1419967764
I0411 20:38:03.813724  2805 layer_factory.hpp:77] Creating layer rpn_cls_score_rpn_cls_score_0_split
I0411 20:38:03.813730  2805 net.cpp:106] Creating Layer rpn_cls_score_rpn_cls_score_0_split
I0411 20:38:03.813735  2805 net.cpp:454] rpn_cls_score_rpn_cls_score_0_split <- rpn_cls_score
I0411 20:38:03.813742  2805 net.cpp:411] rpn_cls_score_rpn_cls_score_0_split -> rpn_cls_score_rpn_cls_score_0_split_0
I0411 20:38:03.813766  2805 net.cpp:411] rpn_cls_score_rpn_cls_score_0_split -> rpn_cls_score_rpn_cls_score_0_split_1
I0411 20:38:03.813802  2805 net.cpp:150] Setting up rpn_cls_score_rpn_cls_score_0_split
I0411 20:38:03.813822  2805 net.cpp:157] Top shape: 1 24 38 63 (57456)
I0411 20:38:03.813827  2805 net.cpp:157] Top shape: 1 24 38 63 (57456)
I0411 20:38:03.813848  2805 net.cpp:165] Memory required for data: 1420427412
I0411 20:38:03.813853  2805 layer_factory.hpp:77] Creating layer rpn_bbox_pred
I0411 20:38:03.813876  2805 net.cpp:106] Creating Layer rpn_bbox_pred
I0411 20:38:03.813881  2805 net.cpp:454] rpn_bbox_pred <- rpn/output_rpn_relu/3x3_0_split_1
I0411 20:38:03.813889  2805 net.cpp:411] rpn_bbox_pred -> rpn_bbox_pred
I0411 20:38:03.815196  2805 net.cpp:150] Setting up rpn_bbox_pred
I0411 20:38:03.815208  2805 net.cpp:157] Top shape: 1 48 38 63 (114912)
I0411 20:38:03.815213  2805 net.cpp:165] Memory required for data: 1420887060
I0411 20:38:03.815238  2805 layer_factory.hpp:77] Creating layer rpn_bbox_pred_rpn_bbox_pred_0_split
I0411 20:38:03.815245  2805 net.cpp:106] Creating Layer rpn_bbox_pred_rpn_bbox_pred_0_split
I0411 20:38:03.815251  2805 net.cpp:454] rpn_bbox_pred_rpn_bbox_pred_0_split <- rpn_bbox_pred
I0411 20:38:03.815258  2805 net.cpp:411] rpn_bbox_pred_rpn_bbox_pred_0_split -> rpn_bbox_pred_rpn_bbox_pred_0_split_0
I0411 20:38:03.815265  2805 net.cpp:411] rpn_bbox_pred_rpn_bbox_pred_0_split -> rpn_bbox_pred_rpn_bbox_pred_0_split_1
I0411 20:38:03.815325  2805 net.cpp:150] Setting up rpn_bbox_pred_rpn_bbox_pred_0_split
I0411 20:38:03.815347  2805 net.cpp:157] Top shape: 1 48 38 63 (114912)
I0411 20:38:03.815353  2805 net.cpp:157] Top shape: 1 48 38 63 (114912)
I0411 20:38:03.815376  2805 net.cpp:165] Memory required for data: 1421806356
I0411 20:38:03.815379  2805 layer_factory.hpp:77] Creating layer rpn_cls_score_reshape
I0411 20:38:03.815388  2805 net.cpp:106] Creating Layer rpn_cls_score_reshape
I0411 20:38:03.815407  2805 net.cpp:454] rpn_cls_score_reshape <- rpn_cls_score_rpn_cls_score_0_split_0
I0411 20:38:03.815412  2805 net.cpp:411] rpn_cls_score_reshape -> rpn_cls_score_reshape
I0411 20:38:03.815434  2805 net.cpp:150] Setting up rpn_cls_score_reshape
I0411 20:38:03.815441  2805 net.cpp:157] Top shape: 1 2 456 63 (57456)
I0411 20:38:03.815445  2805 net.cpp:165] Memory required for data: 1422036180
I0411 20:38:03.815450  2805 layer_factory.hpp:77] Creating layer rpn_cls_score_reshape_rpn_cls_score_reshape_0_split
I0411 20:38:03.815469  2805 net.cpp:106] Creating Layer rpn_cls_score_reshape_rpn_cls_score_reshape_0_split
I0411 20:38:03.815474  2805 net.cpp:454] rpn_cls_score_reshape_rpn_cls_score_reshape_0_split <- rpn_cls_score_reshape
I0411 20:38:03.815479  2805 net.cpp:411] rpn_cls_score_reshape_rpn_cls_score_reshape_0_split -> rpn_cls_score_reshape_rpn_cls_score_reshape_0_split_0
I0411 20:38:03.815485  2805 net.cpp:411] rpn_cls_score_reshape_rpn_cls_score_reshape_0_split -> rpn_cls_score_reshape_rpn_cls_score_reshape_0_split_1
I0411 20:38:03.815512  2805 net.cpp:150] Setting up rpn_cls_score_reshape_rpn_cls_score_reshape_0_split
I0411 20:38:03.815518  2805 net.cpp:157] Top shape: 1 2 456 63 (57456)
I0411 20:38:03.815522  2805 net.cpp:157] Top shape: 1 2 456 63 (57456)
I0411 20:38:03.815526  2805 net.cpp:165] Memory required for data: 1422495828
I0411 20:38:03.815531  2805 layer_factory.hpp:77] Creating layer rpn-data
I0411 20:38:03.817559  2805 net.cpp:106] Creating Layer rpn-data
I0411 20:38:03.817574  2805 net.cpp:454] rpn-data <- rpn_cls_score_rpn_cls_score_0_split_1
I0411 20:38:03.817580  2805 net.cpp:454] rpn-data <- gt_boxes_input-data_2_split_0
I0411 20:38:03.817586  2805 net.cpp:454] rpn-data <- im_info_input-data_1_split_0
I0411 20:38:03.817592  2805 net.cpp:454] rpn-data <- data_input-data_0_split_1
I0411 20:38:03.817600  2805 net.cpp:411] rpn-data -> rpn_labels
I0411 20:38:03.817607  2805 net.cpp:411] rpn-data -> rpn_bbox_targets
I0411 20:38:03.817615  2805 net.cpp:411] rpn-data -> rpn_bbox_inside_weights
I0411 20:38:03.817621  2805 net.cpp:411] rpn-data -> rpn_bbox_outside_weights
I0411 20:38:03.818675  2805 net.cpp:150] Setting up rpn-data
I0411 20:38:03.818688  2805 net.cpp:157] Top shape: 1 1 456 63 (28728)
I0411 20:38:03.818693  2805 net.cpp:157] Top shape: 1 48 38 63 (114912)
I0411 20:38:03.818698  2805 net.cpp:157] Top shape: 1 48 38 63 (114912)
I0411 20:38:03.818703  2805 net.cpp:157] Top shape: 1 48 38 63 (114912)
I0411 20:38:03.818707  2805 net.cpp:165] Memory required for data: 1423989684
I0411 20:38:03.818712  2805 layer_factory.hpp:77] Creating layer rpn_loss_cls
I0411 20:38:03.818722  2805 net.cpp:106] Creating Layer rpn_loss_cls
I0411 20:38:03.818727  2805 net.cpp:454] rpn_loss_cls <- rpn_cls_score_reshape_rpn_cls_score_reshape_0_split_0
I0411 20:38:03.818732  2805 net.cpp:454] rpn_loss_cls <- rpn_labels
…
I0411 20:38:03.820251  2805 net.cpp:157] Top shape: (1)
I0411 20:38:03.820256  2805 net.cpp:160]     with loss weight 1
I0411 20:38:03.820262  2805 net.cpp:165] Memory required for data: 1423989692
I0411 20:38:03.820267  2805 layer_factory.hpp:77] Creating layer rpn_cls_prob
I0411 20:38:03.820273  2805 net.cpp:106] Creating Layer rpn_cls_prob
I0411 20:38:03.820278  2805 net.cpp:454] rpn_cls_prob <- rpn_cls_score_reshape_rpn_cls_score_reshape_0_split_1
I0411 20:38:03.820286  2805 net.cpp:411] rpn_cls_prob -> rpn_cls_prob
I0411 20:38:03.820564  2805 net.cpp:150] Setting up rpn_cls_prob
I0411 20:38:03.820574  2805 net.cpp:157] Top shape: 1 2 456 63 (57456)
I0411 20:38:03.820579  2805 net.cpp:165] Memory required for data: 1424219516
I0411 20:38:03.820583  2805 layer_factory.hpp:77] Creating layer rpn_cls_prob_reshape
I0411 20:38:03.820591  2805 net.cpp:106] Creating Layer rpn_cls_prob_reshape
I0411 20:38:03.820596  2805 net.cpp:454] rpn_cls_prob_reshape <- rpn_cls_prob
I0411 20:38:03.820603  2805 net.cpp:411] rpn_cls_prob_reshape -> rpn_cls_prob_reshape
I0411 20:38:03.820626  2805 net.cpp:150] Setting up rpn_cls_prob_reshape
I0411 20:38:03.820633  2805 net.cpp:157] Top shape: 1 24 38 63 (57456)
I0411 20:38:03.820637  2805 net.cpp:165] Memory required for data: 1424449340
I0411 20:38:03.820641  2805 layer_factory.hpp:77] Creating layer proposal
I0411 20:38:03.827316  2805 net.cpp:106] Creating Layer proposal
I0411 20:38:03.827334  2805 net.cpp:454] proposal <- rpn_cls_prob_reshape
I0411 20:38:03.827340  2805 net.cpp:454] proposal <- rpn_bbox_pred_rpn_bbox_pred_0_split_1
I0411 20:38:03.827344  2805 net.cpp:454] proposal <- im_info_input-data_1_split_1
I0411 20:38:03.827350  2805 net.cpp:411] proposal -> rpn_rois
I0411 20:38:03.829973  2805 net.cpp:150] Setting up proposal
I0411 20:38:03.829991  2805 net.cpp:157] Top shape: 1 5 (5)
I0411 20:38:03.830014  2805 net.cpp:165] Memory required for data: 1424449360
I0411 20:38:03.830020  2805 layer_factory.hpp:77] Creating layer roi-data
I0411 20:38:03.862678  2805 net.cpp:106] Creating Layer roi-data
I0411 20:38:03.862706  2805 net.cpp:454] roi-data <- rpn_rois
I0411 20:38:03.862717  2805 net.cpp:454] roi-data <- gt_boxes_input-data_2_split_1
I0411 20:38:03.862726  2805 net.cpp:411] roi-data -> rois
I0411 20:38:03.862737  2805 net.cpp:411] roi-data -> labels
I0411 20:38:03.862748  2805 net.cpp:411] roi-data -> bbox_targets
I0411 20:38:03.862757  2805 net.cpp:411] roi-data -> bbox_inside_weights
I0411 20:38:03.862766  2805 net.cpp:411] roi-data -> bbox_outside_weights
I0411 20:38:03.863328  2805 net.cpp:150] Setting up roi-data
I0411 20:38:03.863346  2805 net.cpp:157] Top shape: 1 5 (5)
I0411 20:38:03.863353  2805 net.cpp:157] Top shape: 1 1 (1)
I0411 20:38:03.863359  2805 net.cpp:157] Top shape: 1 324 (324)
I0411 20:38:03.863365  2805 net.cpp:157] Top shape: 1 324 (324)
I0411 20:38:03.863373  2805 net.cpp:157] Top shape: 1 324 (324)
I0411 20:38:03.863378  2805 net.cpp:165] Memory required for data: 1424453272
I0411 20:38:03.863384  2805 layer_factory.hpp:77] Creating layer roi_pool5
I0411 20:38:03.863395  2805 net.cpp:106] Creating Layer roi_pool5
I0411 20:38:03.863402  2805 net.cpp:454] roi_pool5 <- conv5_3_relu5_3_0_split_1
I0411 20:38:03.863410  2805 net.cpp:454] roi_pool5 <- rois
I0411 20:38:03.863418  2805 net.cpp:411] roi_pool5 -> pool5
I0411 20:38:03.863428  2805 roi_pooling_layer.cpp:30] Spatial scale: 0.0625
I0411 20:38:03.863481  2805 net.cpp:150] Setting up roi_pool5
I0411 20:38:03.863490  2805 net.cpp:157] Top shape: 1 512 7 7 (25088)
I0411 20:38:03.863495  2805 net.cpp:165] Memory required for data: 1424553624
I0411 20:38:03.863502  2805 layer_factory.hpp:77] Creating layer fc6
I0411 20:38:03.863512  2805 net.cpp:106] Creating Layer fc6
I0411 20:38:03.863517  2805 net.cpp:454] fc6 <- pool5
I0411 20:38:03.863526  2805 net.cpp:411] fc6 -> fc6
I0411 20:38:04.032271  2805 net.cpp:150] Setting up fc6
I0411 20:38:04.032318  2805 net.cpp:157] Top shape: 1 4096 (4096)
I0411 20:38:04.032325  2805 net.cpp:165] Memory required for data: 1424570008
I0411 20:38:04.032356  2805 layer_factory.hpp:77] Creating layer relu6
I0411 20:38:04.032367  2805 net.cpp:106] Creating Layer relu6
I0411 20:38:04.032374  2805 net.cpp:454] relu6 <- fc6
I0411 20:38:04.032382  2805 net.cpp:397] relu6 -> fc6 (in-place)
I0411 20:38:04.032693  2805 net.cpp:150] Setting up relu6
I0411 20:38:04.032706  2805 net.cpp:157] Top shape: 1 4096 (4096)
I0411 20:38:04.032711  2805 net.cpp:165] Memory required for data: 1424586392
I0411 20:38:04.032733  2805 layer_factory.hpp:77] Creating layer fc7
I0411 20:38:04.032742  2805 net.cpp:106] Creating Layer fc7
I0411 20:38:04.032747  2805 net.cpp:454] fc7 <- fc6
I0411 20:38:04.032753  2805 net.cpp:411] fc7 -> fc7
I0411 20:38:04.056095  2805 net.cpp:150] Setting up fc7
I0411 20:38:04.056120  2805 net.cpp:157] Top shape: 1 4096 (4096)
I0411 20:38:04.056144  2805 net.cpp:165] Memory required for data: 1424602776
I0411 20:38:04.056155  2805 layer_factory.hpp:77] Creating layer relu7
I0411 20:38:04.056181  2805 net.cpp:106] Creating Layer relu7
I0411 20:38:04.056187  2805 net.cpp:454] relu7 <- fc7
I0411 20:38:04.056195  2805 net.cpp:397] relu7 -> fc7 (in-place)
I0411 20:38:04.056392  2805 net.cpp:150] Setting up relu7
I0411 20:38:04.056401  2805 net.cpp:157] Top shape: 1 4096 (4096)
I0411 20:38:04.056406  2805 net.cpp:165] Memory required for data: 1424619160
I0411 20:38:04.056428  2805 layer_factory.hpp:77] Creating layer fc7_relu7_0_split
I0411 20:38:04.056437  2805 net.cpp:106] Creating Layer fc7_relu7_0_split
I0411 20:38:04.056442  2805 net.cpp:454] fc7_relu7_0_split <- fc7
I0411 20:38:04.056447  2805 net.cpp:411] fc7_relu7_0_split -> fc7_relu7_0_split_0
I0411 20:38:04.056455  2805 net.cpp:411] fc7_relu7_0_split -> fc7_relu7_0_split_1
I0411 20:38:04.056504  2805 net.cpp:150] Setting up fc7_relu7_0_split
I0411 20:38:04.056512  2805 net.cpp:157] Top shape: 1 4096 (4096)
I0411 20:38:04.056517  2805 net.cpp:157] Top shape: 1 4096 (4096)
I0411 20:38:04.056521  2805 net.cpp:165] Memory required for data: 1424651928
I0411 20:38:04.056526  2805 layer_factory.hpp:77] Creating layer cls_score
I0411 20:38:04.056556  2805 net.cpp:106] Creating Layer cls_score
I0411 20:38:04.056561  2805 net.cpp:454] cls_score <- fc7_relu7_0_split_0
I0411 20:38:04.056568  2805 net.cpp:411] cls_score -> cls_score
I0411 20:38:04.066191  2805 net.cpp:150] Setting up cls_score
I0411 20:38:04.066213  2805 net.cpp:157] Top shape: 1 81 (81)
I0411 20:38:04.066237  2805 net.cpp:165] Memory required for data: 1424652252
I0411 20:38:04.066261  2805 layer_factory.hpp:77] Creating layer bbox_pred
I0411 20:38:04.066272  2805 net.cpp:106] Creating Layer bbox_pred
I0411 20:38:04.066277  2805 net.cpp:454] bbox_pred <- fc7_relu7_0_split_1
I0411 20:38:04.066285  2805 net.cpp:411] bbox_pred -> bbox_pred
I0411 20:38:04.100136  2805 net.cpp:150] Setting up bbox_pred
I0411 20:38:04.100157  2805 net.cpp:157] Top shape: 1 324 (324)
I0411 20:38:04.100180  2805 net.cpp:165] Memory required for data: 1424653548
I0411 20:38:04.100190  2805 layer_factory.hpp:77] Creating layer loss_cls
I0411 20:38:04.100201  2805 net.cpp:106] Creating Layer loss_cls
I0411 20:38:04.100214  2805 net.cpp:454] loss_cls <- cls_score
I0411 20:38:04.100220  2805 net.cpp:454] loss_cls <- labels
I0411 20:38:04.100239  2805 net.cpp:411] loss_cls -> loss_cls
…
