WARNING: Logging before InitGoogleLogging() is written to STDERR
I0412 02:27:09.633473  9520 net.cpp:49] Initializing net from parameters: 
name: "BIGDATA_COCO_NET"
input: "data"
input: "im_info"
state {
  phase: TEST
}
input_shape {
  dim: 1
  dim: 3
  dim: 224
  dim: 224
}
input_shape {
  dim: 1
  dim: 3
}
layer {
  name: "conv1_1"
  type: "Convolution"
  bottom: "data"
  top: "conv1_1"
  param {
    lr_mult: 0
    decay_mult: 0
  }
  param {
    lr_mult: 0
    decay_mult: 0
  }
  convolution_param {
    num_output: 64
    pad: 1
    kernel_size: 3
  }
}
layer {
  name: "relu1_1"
  type: "ReLU"
  bottom: "conv1_1"
  top: "conv1_1"
}
layer {
  name: "conv1_2"
  type: "Convolution"
  bottom: "conv1_1"
  top: "conv1_2"
  param {
    lr_mult: 0
    decay_mult: 0
  }
  param {
    lr_mult: 0
    decay_mult: 0
  }
  convolution_param {
    num_output: 64
    pad: 1
    kernel_size: 3
  }
}
layer {
  name: "relu1_2"
  type: "ReLU"
  bottom: "conv1_2"
  top: "conv1_2"
}
layer {
  name: "pool1"
  type: "Pooling"
  bottom: "conv1_2"
  top: "pool1"
  pooling_param {
    pool: MAX
    kernel_size: 2
    stride: 2
  }
}
layer {
  name: "conv2_1"
  type: "Convolution"
  bottom: "pool1"
  top: "conv2_1"
  param {
    lr_mult: 0
    decay_mult: 0
  }
  param {
    lr_mult: 0
    decay_mult: 0
  }
  convolution_param {
    num_output: 128
    pad: 1
    kernel_size: 3
  }
}
layer {
  name: "relu2_1"
  type: "ReLU"
  bottom: "conv2_1"
  top: "conv2_1"
}
layer {
  name: "conv2_2"
  type: "Convolution"
  bottom: "conv2_1"
  top: "conv2_2"
  param {
    lr_mult: 0
    decay_mult: 0
  }
  param {
    lr_mult: 0
    decay_mult: 0
  }
  convolution_param {
    num_output: 128
    pad: 1
    kernel_size: 3
  }
}
layer {
  name: "relu2_2"
  type: "ReLU"
  bottom: "conv2_2"
  top: "conv2_2"
}
layer {
  name: "pool2"
  type: "Pooling"
  bottom: "conv2_2"
  top: "pool2"
  pooling_param {
    pool: MAX
    kernel_size: 2
    stride: 2
  }
}
layer {
  name: "conv3_1"
  type: "Convolution"
  bottom: "pool2"
  top: "conv3_1"
  param {
    lr_mult: 1
    decay_mult: 1
  }
  param {
    lr_mult: 2
    decay_mult: 0
  }
  convolution_param {
    num_output: 256
    pad: 1
    kernel_size: 3
  }
}
layer {
  name: "relu3_1"
  type: "ReLU"
  bottom: "conv3_1"
  top: "conv3_1"
}
layer {
  name: "conv3_2"
  type: "Convolution"
  bottom: "conv3_1"
  top: "conv3_2"
  param {
    lr_mult: 1
    decay_mult: 1
  }
  param {
    lr_mult: 2
    decay_mult: 0
  }
  convolution_param {
    num_output: 256
    pad: 1
    kernel_size: 3
  }
}
layer {
  name: "relu3_2"
  type: "ReLU"
  bottom: "conv3_2"
  top: "conv3_2"
}
layer {
  name: "conv3_3"
  type: "Convolution"
  bottom: "conv3_2"
  top: "conv3_3"
  param {
    lr_mult: 1
    decay_mult: 1
  }
  param {
    lr_mult: 2
    decay_mult: 0
  }
  convolution_param {
    num_output: 256
    pad: 1
    kernel_size: 3
  }
}
layer {
  name: "relu3_3"
  type: "ReLU"
  bottom: "conv3_3"
  top: "conv3_3"
}
layer {
  name: "pool3"
  type: "Pooling"
  bottom: "conv3_3"
  top: "pool3"
  pooling_param {
    pool: MAX
    kernel_size: 2
    stride: 2
  }
}
layer {
  name: "conv4_1"
  type: "Convolution"
  bottom: "pool3"
  top: "conv4_1"
  param {
    lr_mult: 1
    decay_mult: 1
  }
  param {
    lr_mult: 2
    decay_mult: 0
  }
  convolution_param {
    num_output: 512
    pad: 1
    kernel_size: 3
  }
}
layer {
  name: "relu4_1"
  type: "ReLU"
  bottom: "conv4_1"
  top: "conv4_1"
}
layer {
  name: "conv4_2"
  type: "Convolution"
  bottom: "conv4_1"
  top: "conv4_2"
  param {
    lr_mult: 1
    decay_mult: 1
  }
  param {
    lr_mult: 2
    decay_mult: 0
  }
  convolution_param {
    num_output: 512
    pad: 1
    kernel_size: 3
  }
}
layer {
  name: "relu4_2"
  type: "ReLU"
  bottom: "conv4_2"
  top: "conv4_2"
}
layer {
  name: "conv4_3"
  type: "Convolution"
  bottom: "conv4_2"
  top: "conv4_3"
  param {
    lr_mult: 1
    decay_mult: 1
  }
  param {
    lr_mult: 2
    decay_mult: 0
  }
  convolution_param {
    num_output: 512
    pad: 1
    kernel_size: 3
  }
}
layer {
  name: "relu4_3"
  type: "ReLU"
  bottom: "conv4_3"
  top: "conv4_3"
}
layer {
  name: "pool4"
  type: "Pooling"
  bottom: "conv4_3"
  top: "pool4"
  pooling_param {
    pool: MAX
    kernel_size: 2
    stride: 2
  }
}
layer {
  name: "conv5_1"
  type: "Convolution"
  bottom: "pool4"
  top: "conv5_1"
  param {
    lr_mult: 1
    decay_mult: 1
  }
  param {
    lr_mult: 2
    decay_mult: 0
  }
  convolution_param {
    num_output: 512
    pad: 1
    kernel_size: 3
  }
}
layer {
  name: "relu5_1"
  type: "ReLU"
  bottom: "conv5_1"
  top: "conv5_1"
}
layer {
  name: "conv5_2"
  type: "Convolution"
  bottom: "conv5_1"
  top: "conv5_2"
  param {
    lr_mult: 1
    decay_mult: 1
  }
  param {
    lr_mult: 2
    decay_mult: 0
  }
  convolution_param {
    num_output: 512
    pad: 1
    kernel_size: 3
  }
}
layer {
  name: "relu5_2"
  type: "ReLU"
  bottom: "conv5_2"
  top: "conv5_2"
}
layer {
  name: "conv5_3"
  type: "Convolution"
  bottom: "conv5_2"
  top: "conv5_3"
  param {
    lr_mult: 1
    decay_mult: 1
  }
  param {
    lr_mult: 2
    decay_mult: 0
  }
  convolution_param {
    num_output: 512
    pad: 1
    kernel_size: 3
  }
}
layer {
  name: "relu5_3"
  type: "ReLU"
  bottom: "conv5_3"
  top: "conv5_3"
}
layer {
  name: "rpn_conv/3x3"
  type: "Convolution"
  bottom: "conv5_3"
  top: "rpn/output"
  param {
    lr_mult: 1
    decay_mult: 1
  }
  param {
    lr_mult: 2
    decay_mult: 0
  }
  convolution_param {
    num_output: 512
    pad: 1
    kernel_size: 3
    stride: 1
    weight_filler {
      type: "gaussian"
      std: 0.01
    }
    bias_filler {
      type: "constant"
      value: 0
    }
  }
}
layer {
  name: "rpn_relu/3x3"
  type: "ReLU"
  bottom: "rpn/output"
  top: "rpn/output"
}
layer {
  name: "rpn_cls_score"
  type: "Convolution"
  bottom: "rpn/output"
  top: "rpn_cls_score"
  param {
    lr_mult: 1
    decay_mult: 1
  }
  param {
    lr_mult: 2
    decay_mult: 0
  }
  convolution_param {
    num_output: 24
    pad: 0
    kernel_size: 1
    stride: 1
    weight_filler {
      type: "gaussian"
      std: 0.01
    }
    bias_filler {
      type: "constant"
      value: 0
    }
  }
}
layer {
  name: "rpn_bbox_pred"
  type: "Convolution"
  bottom: "rpn/output"
  top: "rpn_bbox_pred"
  param {
    lr_mult: 1
    decay_mult: 1
  }
  param {
    lr_mult: 2
    decay_mult: 0
  }
  convolution_param {
    num_output: 48
    pad: 0
    kernel_size: 1
    stride: 1
    weight_filler {
      type: "gaussian"
      std: 0.01
    }
    bias_filler {
      type: "constant"
      value: 0
    }
  }
}
layer {
  name: "rpn_cls_score_reshape"
  type: "Reshape"
  bottom: "rpn_cls_score"
  top: "rpn_cls_score_reshape"
  reshape_param {
    shape {
      dim: 0
      dim: 2
      dim: -1
      dim: 0
    }
  }
}
layer {
  name: "rpn_cls_prob"
  type: "Softmax"
  bottom: "rpn_cls_score_reshape"
  top: "rpn_cls_prob"
}
layer {
  name: "rpn_cls_prob_reshape"
  type: "Reshape"
  bottom: "rpn_cls_prob"
  top: "rpn_cls_prob_reshape"
  reshape_param {
    shape {
      dim: 0
      dim: 24
      dim: -1
      dim: 0
    }
  }
}
layer {
  name: "proposal"
  type: "Python"
  bottom: "rpn_cls_prob_reshape"
  bottom: "rpn_bbox_pred"
  bottom: "im_info"
  top: "rois"
  python_param {
    module: "rpn.proposal_layer"
    layer: "ProposalLayer"
    param_str: "\'feat_stride\': 16 \n\'scales\': !!python/tuple [4, 8, 16, 32]"
  }
}
layer {
  name: "roi_pool5"
  type: "ROIPooling"
  bottom: "conv5_3"
  bottom: "rois"
  top: "pool5"
  roi_pooling_param {
    pooled_h: 7
    pooled_w: 7
    spatial_scale: 0.0625
  }
}
layer {
  name: "fc6"
  type: "InnerProduct"
  bottom: "pool5"
  top: "fc6"
  param {
    lr_mult: 1
    decay_mult: 1
  }
  param {
    lr_mult: 2
    decay_mult: 0
  }
  inner_product_param {
    num_output: 4096
  }
}
layer {
  name: "relu6"
  type: "ReLU"
  bottom: "fc6"
  top: "fc6"
}
layer {
  name: "fc7"
  type: "InnerProduct"
  bottom: "fc6"
  top: "fc7"
  param {
    lr_mult: 1
    decay_mult: 1
  }
  param {
    lr_mult: 2
    decay_mult: 0
  }
  inner_product_param {
    num_output: 4096
  }
}
layer {
  name: "relu7"
  type: "ReLU"
  bottom: "fc7"
  top: "fc7"
}
layer {
  name: "cls_score"
  type: "InnerProduct"
  bottom: "fc7"
  top: "cls_score"
  param {
    lr_mult: 1
    decay_mult: 1
  }
  param {
    lr_mult: 2
    decay_mult: 0
  }
  inner_product_param {
    num_output: 81
    weight_filler {
      type: "gaussian"
      std: 0.01
    }
    bias_filler {
      type: "constant"
      value: 0
    }
  }
}
layer {
  name: "bbox_pred"
  type: "InnerProduct"
  bottom: "fc7"
  top: "bbox_pred"
  param {
    lr_mult: 1
    decay_mult: 1
  }
  param {
    lr_mult: 2
    decay_mult: 0
  }
  inner_product_param {
    num_output: 324
    weight_filler {
      type: "gaussian"
      std: 0.001
    }
    bias_filler {
      type: "constant"
      value: 0
    }
  }
}
layer {
  name: "cls_prob"
  type: "Softmax"
  bottom: "cls_score"
  top: "cls_prob"
}
I0412 02:27:09.633760  9520 net.cpp:413] Input 0 -> data
I0412 02:27:09.641604  9520 net.cpp:413] Input 1 -> im_info
I0412 02:27:09.641670  9520 layer_factory.hpp:77] Creating layer conv1_1
I0412 02:27:09.641726  9520 net.cpp:106] Creating Layer conv1_1
I0412 02:27:09.641742  9520 net.cpp:454] conv1_1 <- data
I0412 02:27:09.641749  9520 net.cpp:411] conv1_1 -> conv1_1
I0412 02:27:09.850564  9520 net.cpp:150] Setting up conv1_1
I0412 02:27:09.850591  9520 net.cpp:157] Top shape: 1 64 224 224 (3211264)
I0412 02:27:09.850615  9520 net.cpp:165] Memory required for data: 12845056
I0412 02:27:09.850628  9520 layer_factory.hpp:77] Creating layer relu1_1
I0412 02:27:09.850658  9520 net.cpp:106] Creating Layer relu1_1
I0412 02:27:09.850663  9520 net.cpp:454] relu1_1 <- conv1_1
I0412 02:27:09.850684  9520 net.cpp:397] relu1_1 -> conv1_1 (in-place)
I0412 02:27:09.851038  9520 net.cpp:150] Setting up relu1_1
I0412 02:27:09.851049  9520 net.cpp:157] Top shape: 1 64 224 224 (3211264)
I0412 02:27:09.851053  9520 net.cpp:165] Memory required for data: 25690112
I0412 02:27:09.851057  9520 layer_factory.hpp:77] Creating layer conv1_2
I0412 02:27:09.851084  9520 net.cpp:106] Creating Layer conv1_2
I0412 02:27:09.851088  9520 net.cpp:454] conv1_2 <- conv1_1
I0412 02:27:09.851094  9520 net.cpp:411] conv1_2 -> conv1_2
I0412 02:27:09.852118  9520 net.cpp:150] Setting up conv1_2
I0412 02:27:09.852131  9520 net.cpp:157] Top shape: 1 64 224 224 (3211264)
I0412 02:27:09.852135  9520 net.cpp:165] Memory required for data: 38535168
I0412 02:27:09.852161  9520 layer_factory.hpp:77] Creating layer relu1_2
I0412 02:27:09.852175  9520 net.cpp:106] Creating Layer relu1_2
I0412 02:27:09.852180  9520 net.cpp:454] relu1_2 <- conv1_2
I0412 02:27:09.852202  9520 net.cpp:397] relu1_2 -> conv1_2 (in-place)
I0412 02:27:09.852455  9520 net.cpp:150] Setting up relu1_2
I0412 02:27:09.852464  9520 net.cpp:157] Top shape: 1 64 224 224 (3211264)
I0412 02:27:09.852468  9520 net.cpp:165] Memory required for data: 51380224
I0412 02:27:09.852490  9520 layer_factory.hpp:77] Creating layer pool1
I0412 02:27:09.852497  9520 net.cpp:106] Creating Layer pool1
I0412 02:27:09.852501  9520 net.cpp:454] pool1 <- conv1_2
I0412 02:27:09.852506  9520 net.cpp:411] pool1 -> pool1
I0412 02:27:09.852582  9520 net.cpp:150] Setting up pool1
I0412 02:27:09.852591  9520 net.cpp:157] Top shape: 1 64 112 112 (802816)
I0412 02:27:09.852617  9520 net.cpp:165] Memory required for data: 54591488
I0412 02:27:09.852622  9520 layer_factory.hpp:77] Creating layer conv2_1
I0412 02:27:09.852649  9520 net.cpp:106] Creating Layer conv2_1
I0412 02:27:09.852666  9520 net.cpp:454] conv2_1 <- pool1
I0412 02:27:09.852674  9520 net.cpp:411] conv2_1 -> conv2_1
I0412 02:27:09.854163  9520 net.cpp:150] Setting up conv2_1
I0412 02:27:09.854179  9520 net.cpp:157] Top shape: 1 128 112 112 (1605632)
I0412 02:27:09.854183  9520 net.cpp:165] Memory required for data: 61014016
I0412 02:27:09.854210  9520 layer_factory.hpp:77] Creating layer relu2_1
I0412 02:27:09.854218  9520 net.cpp:106] Creating Layer relu2_1
I0412 02:27:09.854221  9520 net.cpp:454] relu2_1 <- conv2_1
I0412 02:27:09.854226  9520 net.cpp:397] relu2_1 -> conv2_1 (in-place)
I0412 02:27:09.854599  9520 net.cpp:150] Setting up relu2_1
I0412 02:27:09.854610  9520 net.cpp:157] Top shape: 1 128 112 112 (1605632)
I0412 02:27:09.854614  9520 net.cpp:165] Memory required for data: 67436544
I0412 02:27:09.854617  9520 layer_factory.hpp:77] Creating layer conv2_2
I0412 02:27:09.854643  9520 net.cpp:106] Creating Layer conv2_2
I0412 02:27:09.854660  9520 net.cpp:454] conv2_2 <- conv2_1
I0412 02:27:09.854665  9520 net.cpp:411] conv2_2 -> conv2_2
I0412 02:27:09.855644  9520 net.cpp:150] Setting up conv2_2
I0412 02:27:09.855664  9520 net.cpp:157] Top shape: 1 128 112 112 (1605632)
I0412 02:27:09.855669  9520 net.cpp:165] Memory required for data: 73859072
I0412 02:27:09.855679  9520 layer_factory.hpp:77] Creating layer relu2_2
I0412 02:27:09.855687  9520 net.cpp:106] Creating Layer relu2_2
I0412 02:27:09.855710  9520 net.cpp:454] relu2_2 <- conv2_2
I0412 02:27:09.855715  9520 net.cpp:397] relu2_2 -> conv2_2 (in-place)
I0412 02:27:09.856101  9520 net.cpp:150] Setting up relu2_2
I0412 02:27:09.856112  9520 net.cpp:157] Top shape: 1 128 112 112 (1605632)
I0412 02:27:09.856115  9520 net.cpp:165] Memory required for data: 80281600
I0412 02:27:09.856122  9520 layer_factory.hpp:77] Creating layer pool2
I0412 02:27:09.856132  9520 net.cpp:106] Creating Layer pool2
I0412 02:27:09.856137  9520 net.cpp:454] pool2 <- conv2_2
I0412 02:27:09.856159  9520 net.cpp:411] pool2 -> pool2
I0412 02:27:09.856228  9520 net.cpp:150] Setting up pool2
I0412 02:27:09.856253  9520 net.cpp:157] Top shape: 1 128 56 56 (401408)
I0412 02:27:09.856257  9520 net.cpp:165] Memory required for data: 81887232
I0412 02:27:09.856261  9520 layer_factory.hpp:77] Creating layer conv3_1
I0412 02:27:09.856266  9520 net.cpp:106] Creating Layer conv3_1
I0412 02:27:09.856297  9520 net.cpp:454] conv3_1 <- pool2
I0412 02:27:09.856303  9520 net.cpp:411] conv3_1 -> conv3_1
I0412 02:27:09.857672  9520 net.cpp:150] Setting up conv3_1
I0412 02:27:09.857687  9520 net.cpp:157] Top shape: 1 256 56 56 (802816)
I0412 02:27:09.857692  9520 net.cpp:165] Memory required for data: 85098496
I0412 02:27:09.857703  9520 layer_factory.hpp:77] Creating layer relu3_1
I0412 02:27:09.857714  9520 net.cpp:106] Creating Layer relu3_1
I0412 02:27:09.857720  9520 net.cpp:454] relu3_1 <- conv3_1
I0412 02:27:09.857727  9520 net.cpp:397] relu3_1 -> conv3_1 (in-place)
I0412 02:27:09.857903  9520 net.cpp:150] Setting up relu3_1
I0412 02:27:09.857913  9520 net.cpp:157] Top shape: 1 256 56 56 (802816)
I0412 02:27:09.857916  9520 net.cpp:165] Memory required for data: 88309760
I0412 02:27:09.857923  9520 layer_factory.hpp:77] Creating layer conv3_2
I0412 02:27:09.857933  9520 net.cpp:106] Creating Layer conv3_2
I0412 02:27:09.857939  9520 net.cpp:454] conv3_2 <- conv3_1
I0412 02:27:09.857946  9520 net.cpp:411] conv3_2 -> conv3_2
I0412 02:27:09.859997  9520 net.cpp:150] Setting up conv3_2
I0412 02:27:09.860010  9520 net.cpp:157] Top shape: 1 256 56 56 (802816)
I0412 02:27:09.860015  9520 net.cpp:165] Memory required for data: 91521024
I0412 02:27:09.860023  9520 layer_factory.hpp:77] Creating layer relu3_2
I0412 02:27:09.860045  9520 net.cpp:106] Creating Layer relu3_2
I0412 02:27:09.860054  9520 net.cpp:454] relu3_2 <- conv3_2
I0412 02:27:09.860069  9520 net.cpp:397] relu3_2 -> conv3_2 (in-place)
I0412 02:27:09.860321  9520 net.cpp:150] Setting up relu3_2
I0412 02:27:09.860333  9520 net.cpp:157] Top shape: 1 256 56 56 (802816)
I0412 02:27:09.860352  9520 net.cpp:165] Memory required for data: 94732288
I0412 02:27:09.860357  9520 layer_factory.hpp:77] Creating layer conv3_3
I0412 02:27:09.860366  9520 net.cpp:106] Creating Layer conv3_3
I0412 02:27:09.860373  9520 net.cpp:454] conv3_3 <- conv3_2
I0412 02:27:09.860383  9520 net.cpp:411] conv3_3 -> conv3_3
I0412 02:27:09.862676  9520 net.cpp:150] Setting up conv3_3
I0412 02:27:09.862694  9520 net.cpp:157] Top shape: 1 256 56 56 (802816)
I0412 02:27:09.862714  9520 net.cpp:165] Memory required for data: 97943552
I0412 02:27:09.862721  9520 layer_factory.hpp:77] Creating layer relu3_3
I0412 02:27:09.862728  9520 net.cpp:106] Creating Layer relu3_3
I0412 02:27:09.862735  9520 net.cpp:454] relu3_3 <- conv3_3
I0412 02:27:09.862743  9520 net.cpp:397] relu3_3 -> conv3_3 (in-place)
I0412 02:27:09.863075  9520 net.cpp:150] Setting up relu3_3
I0412 02:27:09.863101  9520 net.cpp:157] Top shape: 1 256 56 56 (802816)
I0412 02:27:09.863106  9520 net.cpp:165] Memory required for data: 101154816
I0412 02:27:09.863111  9520 layer_factory.hpp:77] Creating layer pool3
I0412 02:27:09.863118  9520 net.cpp:106] Creating Layer pool3
I0412 02:27:09.863122  9520 net.cpp:454] pool3 <- conv3_3
I0412 02:27:09.863150  9520 net.cpp:411] pool3 -> pool3
I0412 02:27:09.863212  9520 net.cpp:150] Setting up pool3
I0412 02:27:09.863220  9520 net.cpp:157] Top shape: 1 256 28 28 (200704)
I0412 02:27:09.863224  9520 net.cpp:165] Memory required for data: 101957632
I0412 02:27:09.863227  9520 layer_factory.hpp:77] Creating layer conv4_1
I0412 02:27:09.863235  9520 net.cpp:106] Creating Layer conv4_1
I0412 02:27:09.863253  9520 net.cpp:454] conv4_1 <- pool3
I0412 02:27:09.863262  9520 net.cpp:411] conv4_1 -> conv4_1
I0412 02:27:09.867018  9520 net.cpp:150] Setting up conv4_1
I0412 02:27:09.867043  9520 net.cpp:157] Top shape: 1 512 28 28 (401408)
I0412 02:27:09.867048  9520 net.cpp:165] Memory required for data: 103563264
I0412 02:27:09.867075  9520 layer_factory.hpp:77] Creating layer relu4_1
I0412 02:27:09.867084  9520 net.cpp:106] Creating Layer relu4_1
I0412 02:27:09.867089  9520 net.cpp:454] relu4_1 <- conv4_1
I0412 02:27:09.867097  9520 net.cpp:397] relu4_1 -> conv4_1 (in-place)
I0412 02:27:09.867305  9520 net.cpp:150] Setting up relu4_1
I0412 02:27:09.867314  9520 net.cpp:157] Top shape: 1 512 28 28 (401408)
I0412 02:27:09.867319  9520 net.cpp:165] Memory required for data: 105168896
I0412 02:27:09.867322  9520 layer_factory.hpp:77] Creating layer conv4_2
I0412 02:27:09.867333  9520 net.cpp:106] Creating Layer conv4_2
I0412 02:27:09.867353  9520 net.cpp:454] conv4_2 <- conv4_1
I0412 02:27:09.867377  9520 net.cpp:411] conv4_2 -> conv4_2
I0412 02:27:09.873363  9520 net.cpp:150] Setting up conv4_2
I0412 02:27:09.873379  9520 net.cpp:157] Top shape: 1 512 28 28 (401408)
I0412 02:27:09.873384  9520 net.cpp:165] Memory required for data: 106774528
I0412 02:27:09.873397  9520 layer_factory.hpp:77] Creating layer relu4_2
I0412 02:27:09.873407  9520 net.cpp:106] Creating Layer relu4_2
I0412 02:27:09.873428  9520 net.cpp:454] relu4_2 <- conv4_2
I0412 02:27:09.873438  9520 net.cpp:397] relu4_2 -> conv4_2 (in-place)
I0412 02:27:09.873711  9520 net.cpp:150] Setting up relu4_2
I0412 02:27:09.873723  9520 net.cpp:157] Top shape: 1 512 28 28 (401408)
I0412 02:27:09.873726  9520 net.cpp:165] Memory required for data: 108380160
I0412 02:27:09.873730  9520 layer_factory.hpp:77] Creating layer conv4_3
I0412 02:27:09.873775  9520 net.cpp:106] Creating Layer conv4_3
I0412 02:27:09.873780  9520 net.cpp:454] conv4_3 <- conv4_2
I0412 02:27:09.873787  9520 net.cpp:411] conv4_3 -> conv4_3
I0412 02:27:09.881728  9520 net.cpp:150] Setting up conv4_3
I0412 02:27:09.881752  9520 net.cpp:157] Top shape: 1 512 28 28 (401408)
I0412 02:27:09.881773  9520 net.cpp:165] Memory required for data: 109985792
I0412 02:27:09.881783  9520 layer_factory.hpp:77] Creating layer relu4_3
I0412 02:27:09.881793  9520 net.cpp:106] Creating Layer relu4_3
I0412 02:27:09.881798  9520 net.cpp:454] relu4_3 <- conv4_3
I0412 02:27:09.881820  9520 net.cpp:397] relu4_3 -> conv4_3 (in-place)
I0412 02:27:09.882326  9520 net.cpp:150] Setting up relu4_3
I0412 02:27:09.882339  9520 net.cpp:157] Top shape: 1 512 28 28 (401408)
I0412 02:27:09.882342  9520 net.cpp:165] Memory required for data: 111591424
I0412 02:27:09.882346  9520 layer_factory.hpp:77] Creating layer pool4
I0412 02:27:09.882367  9520 net.cpp:106] Creating Layer pool4
I0412 02:27:09.882388  9520 net.cpp:454] pool4 <- conv4_3
I0412 02:27:09.882395  9520 net.cpp:411] pool4 -> pool4
I0412 02:27:09.882470  9520 net.cpp:150] Setting up pool4
I0412 02:27:09.882479  9520 net.cpp:157] Top shape: 1 512 14 14 (100352)
I0412 02:27:09.882483  9520 net.cpp:165] Memory required for data: 111992832
I0412 02:27:09.882491  9520 layer_factory.hpp:77] Creating layer conv5_1
I0412 02:27:09.882525  9520 net.cpp:106] Creating Layer conv5_1
I0412 02:27:09.882530  9520 net.cpp:454] conv5_1 <- pool4
I0412 02:27:09.882539  9520 net.cpp:411] conv5_1 -> conv5_1
I0412 02:27:09.888511  9520 net.cpp:150] Setting up conv5_1
I0412 02:27:09.888531  9520 net.cpp:157] Top shape: 1 512 14 14 (100352)
I0412 02:27:09.888553  9520 net.cpp:165] Memory required for data: 112394240
I0412 02:27:09.888576  9520 layer_factory.hpp:77] Creating layer relu5_1
I0412 02:27:09.888583  9520 net.cpp:106] Creating Layer relu5_1
I0412 02:27:09.888602  9520 net.cpp:454] relu5_1 <- conv5_1
I0412 02:27:09.888609  9520 net.cpp:397] relu5_1 -> conv5_1 (in-place)
I0412 02:27:09.888957  9520 net.cpp:150] Setting up relu5_1
I0412 02:27:09.888967  9520 net.cpp:157] Top shape: 1 512 14 14 (100352)
I0412 02:27:09.888972  9520 net.cpp:165] Memory required for data: 112795648
I0412 02:27:09.888975  9520 layer_factory.hpp:77] Creating layer conv5_2
I0412 02:27:09.888983  9520 net.cpp:106] Creating Layer conv5_2
I0412 02:27:09.889008  9520 net.cpp:454] conv5_2 <- conv5_1
I0412 02:27:09.889014  9520 net.cpp:411] conv5_2 -> conv5_2
I0412 02:27:09.894032  9520 net.cpp:150] Setting up conv5_2
I0412 02:27:09.894052  9520 net.cpp:157] Top shape: 1 512 14 14 (100352)
I0412 02:27:09.894057  9520 net.cpp:165] Memory required for data: 113197056
I0412 02:27:09.894083  9520 layer_factory.hpp:77] Creating layer relu5_2
I0412 02:27:09.894090  9520 net.cpp:106] Creating Layer relu5_2
I0412 02:27:09.894094  9520 net.cpp:454] relu5_2 <- conv5_2
I0412 02:27:09.894119  9520 net.cpp:397] relu5_2 -> conv5_2 (in-place)
I0412 02:27:09.894938  9520 net.cpp:150] Setting up relu5_2
I0412 02:27:09.894949  9520 net.cpp:157] Top shape: 1 512 14 14 (100352)
I0412 02:27:09.894954  9520 net.cpp:165] Memory required for data: 113598464
I0412 02:27:09.894975  9520 layer_factory.hpp:77] Creating layer conv5_3
I0412 02:27:09.894996  9520 net.cpp:106] Creating Layer conv5_3
I0412 02:27:09.895000  9520 net.cpp:454] conv5_3 <- conv5_2
I0412 02:27:09.895025  9520 net.cpp:411] conv5_3 -> conv5_3
I0412 02:27:09.901262  9520 net.cpp:150] Setting up conv5_3
I0412 02:27:09.901298  9520 net.cpp:157] Top shape: 1 512 14 14 (100352)
I0412 02:27:09.901303  9520 net.cpp:165] Memory required for data: 113999872
I0412 02:27:09.901310  9520 layer_factory.hpp:77] Creating layer relu5_3
I0412 02:27:09.901319  9520 net.cpp:106] Creating Layer relu5_3
I0412 02:27:09.901324  9520 net.cpp:454] relu5_3 <- conv5_3
I0412 02:27:09.901329  9520 net.cpp:397] relu5_3 -> conv5_3 (in-place)
I0412 02:27:09.901700  9520 net.cpp:150] Setting up relu5_3
I0412 02:27:09.901711  9520 net.cpp:157] Top shape: 1 512 14 14 (100352)
I0412 02:27:09.901715  9520 net.cpp:165] Memory required for data: 114401280
I0412 02:27:09.901718  9520 layer_factory.hpp:77] Creating layer conv5_3_relu5_3_0_split
I0412 02:27:09.901736  9520 net.cpp:106] Creating Layer conv5_3_relu5_3_0_split
I0412 02:27:09.901741  9520 net.cpp:454] conv5_3_relu5_3_0_split <- conv5_3
I0412 02:27:09.901746  9520 net.cpp:411] conv5_3_relu5_3_0_split -> conv5_3_relu5_3_0_split_0
I0412 02:27:09.901772  9520 net.cpp:411] conv5_3_relu5_3_0_split -> conv5_3_relu5_3_0_split_1
I0412 02:27:09.901877  9520 net.cpp:150] Setting up conv5_3_relu5_3_0_split
I0412 02:27:09.901901  9520 net.cpp:157] Top shape: 1 512 14 14 (100352)
I0412 02:27:09.901904  9520 net.cpp:157] Top shape: 1 512 14 14 (100352)
I0412 02:27:09.901926  9520 net.cpp:165] Memory required for data: 115204096
I0412 02:27:09.901932  9520 layer_factory.hpp:77] Creating layer rpn_conv/3x3
I0412 02:27:09.901957  9520 net.cpp:106] Creating Layer rpn_conv/3x3
I0412 02:27:09.901980  9520 net.cpp:454] rpn_conv/3x3 <- conv5_3_relu5_3_0_split_0
I0412 02:27:09.901988  9520 net.cpp:411] rpn_conv/3x3 -> rpn/output
I0412 02:27:09.964449  9520 net.cpp:150] Setting up rpn_conv/3x3
I0412 02:27:09.964473  9520 net.cpp:157] Top shape: 1 512 14 14 (100352)
I0412 02:27:09.964478  9520 net.cpp:165] Memory required for data: 115605504
I0412 02:27:09.964504  9520 layer_factory.hpp:77] Creating layer rpn_relu/3x3
I0412 02:27:09.964529  9520 net.cpp:106] Creating Layer rpn_relu/3x3
I0412 02:27:09.964555  9520 net.cpp:454] rpn_relu/3x3 <- rpn/output
I0412 02:27:09.964561  9520 net.cpp:397] rpn_relu/3x3 -> rpn/output (in-place)
I0412 02:27:09.964831  9520 net.cpp:150] Setting up rpn_relu/3x3
I0412 02:27:09.964840  9520 net.cpp:157] Top shape: 1 512 14 14 (100352)
I0412 02:27:09.964845  9520 net.cpp:165] Memory required for data: 116006912
I0412 02:27:09.964867  9520 layer_factory.hpp:77] Creating layer rpn/output_rpn_relu/3x3_0_split
I0412 02:27:09.964874  9520 net.cpp:106] Creating Layer rpn/output_rpn_relu/3x3_0_split
I0412 02:27:09.964876  9520 net.cpp:454] rpn/output_rpn_relu/3x3_0_split <- rpn/output
I0412 02:27:09.964881  9520 net.cpp:411] rpn/output_rpn_relu/3x3_0_split -> rpn/output_rpn_relu/3x3_0_split_0
I0412 02:27:09.964908  9520 net.cpp:411] rpn/output_rpn_relu/3x3_0_split -> rpn/output_rpn_relu/3x3_0_split_1
I0412 02:27:09.965006  9520 net.cpp:150] Setting up rpn/output_rpn_relu/3x3_0_split
I0412 02:27:09.965031  9520 net.cpp:157] Top shape: 1 512 14 14 (100352)
I0412 02:27:09.965056  9520 net.cpp:157] Top shape: 1 512 14 14 (100352)
I0412 02:27:09.965060  9520 net.cpp:165] Memory required for data: 116809728
I0412 02:27:09.965064  9520 layer_factory.hpp:77] Creating layer rpn_cls_score
I0412 02:27:09.965102  9520 net.cpp:106] Creating Layer rpn_cls_score
I0412 02:27:09.965106  9520 net.cpp:454] rpn_cls_score <- rpn/output_rpn_relu/3x3_0_split_0
I0412 02:27:09.965131  9520 net.cpp:411] rpn_cls_score -> rpn_cls_score
I0412 02:27:09.966387  9520 net.cpp:150] Setting up rpn_cls_score
I0412 02:27:09.966400  9520 net.cpp:157] Top shape: 1 24 14 14 (4704)
I0412 02:27:09.966404  9520 net.cpp:165] Memory required for data: 116828544
I0412 02:27:09.966428  9520 layer_factory.hpp:77] Creating layer rpn_bbox_pred
I0412 02:27:09.966437  9520 net.cpp:106] Creating Layer rpn_bbox_pred
I0412 02:27:09.966441  9520 net.cpp:454] rpn_bbox_pred <- rpn/output_rpn_relu/3x3_0_split_1
I0412 02:27:09.966466  9520 net.cpp:411] rpn_bbox_pred -> rpn_bbox_pred
I0412 02:27:09.967943  9520 net.cpp:150] Setting up rpn_bbox_pred
I0412 02:27:09.967955  9520 net.cpp:157] Top shape: 1 48 14 14 (9408)
I0412 02:27:09.967959  9520 net.cpp:165] Memory required for data: 116866176
I0412 02:27:09.967988  9520 layer_factory.hpp:77] Creating layer rpn_cls_score_reshape
I0412 02:27:09.967998  9520 net.cpp:106] Creating Layer rpn_cls_score_reshape
I0412 02:27:09.968019  9520 net.cpp:454] rpn_cls_score_reshape <- rpn_cls_score
I0412 02:27:09.968024  9520 net.cpp:411] rpn_cls_score_reshape -> rpn_cls_score_reshape
I0412 02:27:09.968102  9520 net.cpp:150] Setting up rpn_cls_score_reshape
I0412 02:27:09.968123  9520 net.cpp:157] Top shape: 1 2 168 14 (4704)
I0412 02:27:09.968127  9520 net.cpp:165] Memory required for data: 116884992
I0412 02:27:09.968152  9520 layer_factory.hpp:77] Creating layer rpn_cls_prob
I0412 02:27:09.968158  9520 net.cpp:106] Creating Layer rpn_cls_prob
I0412 02:27:09.968174  9520 net.cpp:454] rpn_cls_prob <- rpn_cls_score_reshape
I0412 02:27:09.968180  9520 net.cpp:411] rpn_cls_prob -> rpn_cls_prob
I0412 02:27:09.968590  9520 net.cpp:150] Setting up rpn_cls_prob
I0412 02:27:09.968600  9520 net.cpp:157] Top shape: 1 2 168 14 (4704)
I0412 02:27:09.968602  9520 net.cpp:165] Memory required for data: 116903808
I0412 02:27:09.968606  9520 layer_factory.hpp:77] Creating layer rpn_cls_prob_reshape
I0412 02:27:09.968629  9520 net.cpp:106] Creating Layer rpn_cls_prob_reshape
I0412 02:27:09.968633  9520 net.cpp:454] rpn_cls_prob_reshape <- rpn_cls_prob
I0412 02:27:09.968652  9520 net.cpp:411] rpn_cls_prob_reshape -> rpn_cls_prob_reshape
I0412 02:27:09.968706  9520 net.cpp:150] Setting up rpn_cls_prob_reshape
I0412 02:27:09.968714  9520 net.cpp:157] Top shape: 1 24 14 14 (4704)
I0412 02:27:09.968719  9520 net.cpp:165] Memory required for data: 116922624
I0412 02:27:09.968742  9520 layer_factory.hpp:77] Creating layer proposal
I0412 02:27:09.996337  9520 net.cpp:106] Creating Layer proposal
I0412 02:27:09.996362  9520 net.cpp:454] proposal <- rpn_cls_prob_reshape
I0412 02:27:09.996371  9520 net.cpp:454] proposal <- rpn_bbox_pred
I0412 02:27:09.996378  9520 net.cpp:454] proposal <- im_info
I0412 02:27:09.996398  9520 net.cpp:411] proposal -> rois
I0412 02:27:09.998304  9520 net.cpp:150] Setting up proposal
I0412 02:27:09.998323  9520 net.cpp:157] Top shape: 1 5 (5)
I0412 02:27:09.998329  9520 net.cpp:165] Memory required for data: 116922644
I0412 02:27:09.998334  9520 layer_factory.hpp:77] Creating layer roi_pool5
I0412 02:27:09.998345  9520 net.cpp:106] Creating Layer roi_pool5
I0412 02:27:09.998353  9520 net.cpp:454] roi_pool5 <- conv5_3_relu5_3_0_split_1
I0412 02:27:09.998378  9520 net.cpp:454] roi_pool5 <- rois
I0412 02:27:09.998400  9520 net.cpp:411] roi_pool5 -> pool5
I0412 02:27:09.998410  9520 roi_pooling_layer.cpp:30] Spatial scale: 0.0625
I0412 02:27:09.998524  9520 net.cpp:150] Setting up roi_pool5
I0412 02:27:09.998534  9520 net.cpp:157] Top shape: 1 512 7 7 (25088)
I0412 02:27:09.998538  9520 net.cpp:165] Memory required for data: 117022996
I0412 02:27:09.998558  9520 layer_factory.hpp:77] Creating layer fc6
I0412 02:27:09.998584  9520 net.cpp:106] Creating Layer fc6
I0412 02:27:09.998608  9520 net.cpp:454] fc6 <- pool5
I0412 02:27:09.998615  9520 net.cpp:411] fc6 -> fc6
I0412 02:27:10.532855  9520 net.cpp:150] Setting up fc6
I0412 02:27:10.532905  9520 net.cpp:157] Top shape: 1 4096 (4096)
I0412 02:27:10.532915  9520 net.cpp:165] Memory required for data: 117039380
I0412 02:27:10.532935  9520 layer_factory.hpp:77] Creating layer relu6
I0412 02:27:10.532981  9520 net.cpp:106] Creating Layer relu6
I0412 02:27:10.532987  9520 net.cpp:454] relu6 <- fc6
I0412 02:27:10.533006  9520 net.cpp:397] relu6 -> fc6 (in-place)
I0412 02:27:10.533543  9520 net.cpp:150] Setting up relu6
I0412 02:27:10.533553  9520 net.cpp:157] Top shape: 1 4096 (4096)
I0412 02:27:10.533557  9520 net.cpp:165] Memory required for data: 117055764
I0412 02:27:10.533579  9520 layer_factory.hpp:77] Creating layer fc7
I0412 02:27:10.533601  9520 net.cpp:106] Creating Layer fc7
I0412 02:27:10.533607  9520 net.cpp:454] fc7 <- fc6
I0412 02:27:10.533632  9520 net.cpp:411] fc7 -> fc7
I0412 02:27:10.827903  9520 net.cpp:150] Setting up fc7
I0412 02:27:10.827934  9520 net.cpp:157] Top shape: 1 4096 (4096)
I0412 02:27:10.827941  9520 net.cpp:165] Memory required for data: 117072148
I0412 02:27:10.827976  9520 layer_factory.hpp:77] Creating layer relu7
I0412 02:27:10.827987  9520 net.cpp:106] Creating Layer relu7
I0412 02:27:10.827992  9520 net.cpp:454] relu7 <- fc7
I0412 02:27:10.828016  9520 net.cpp:397] relu7 -> fc7 (in-place)
I0412 02:27:10.828531  9520 net.cpp:150] Setting up relu7
I0412 02:27:10.828543  9520 net.cpp:157] Top shape: 1 4096 (4096)
I0412 02:27:10.828550  9520 net.cpp:165] Memory required for data: 117088532
I0412 02:27:10.828555  9520 layer_factory.hpp:77] Creating layer fc7_relu7_0_split
I0412 02:27:10.828583  9520 net.cpp:106] Creating Layer fc7_relu7_0_split
I0412 02:27:10.828601  9520 net.cpp:454] fc7_relu7_0_split <- fc7
I0412 02:27:10.828606  9520 net.cpp:411] fc7_relu7_0_split -> fc7_relu7_0_split_0
I0412 02:27:10.828613  9520 net.cpp:411] fc7_relu7_0_split -> fc7_relu7_0_split_1
I0412 02:27:10.828660  9520 net.cpp:150] Setting up fc7_relu7_0_split
I0412 02:27:10.828668  9520 net.cpp:157] Top shape: 1 4096 (4096)
I0412 02:27:10.828676  9520 net.cpp:157] Top shape: 1 4096 (4096)
I0412 02:27:10.828680  9520 net.cpp:165] Memory required for data: 117121300
I0412 02:27:10.828685  9520 layer_factory.hpp:77] Creating layer cls_score
I0412 02:27:10.828693  9520 net.cpp:106] Creating Layer cls_score
I0412 02:27:10.828697  9520 net.cpp:454] cls_score <- fc7_relu7_0_split_0
I0412 02:27:10.828706  9520 net.cpp:411] cls_score -> cls_score
I0412 02:27:10.837570  9520 net.cpp:150] Setting up cls_score
I0412 02:27:10.837582  9520 net.cpp:157] Top shape: 1 81 (81)
I0412 02:27:10.837589  9520 net.cpp:165] Memory required for data: 117121624
I0412 02:27:10.837613  9520 layer_factory.hpp:77] Creating layer bbox_pred
I0412 02:27:10.837620  9520 net.cpp:106] Creating Layer bbox_pred
I0412 02:27:10.837625  9520 net.cpp:454] bbox_pred <- fc7_relu7_0_split_1
I0412 02:27:10.837630  9520 net.cpp:411] bbox_pred -> bbox_pred
I0412 02:27:10.873766  9520 net.cpp:150] Setting up bbox_pred
I0412 02:27:10.873790  9520 net.cpp:157] Top shape: 1 324 (324)
I0412 02:27:10.873796  9520 net.cpp:165] Memory required for data: 117122920
I0412 02:27:10.873808  9520 layer_factory.hpp:77] Creating layer cls_prob
I0412 02:27:10.873819  9520 net.cpp:106] Creating Layer cls_prob
I0412 02:27:10.873827  9520 net.cpp:454] cls_prob <- cls_score
I0412 02:27:10.873855  9520 net.cpp:411] cls_prob -> cls_prob
I0412 02:27:10.874186  9520 net.cpp:150] Setting up cls_prob
I0412 02:27:10.874197  9520 net.cpp:157] Top shape: 1 81 (81)
I0412 02:27:10.874203  9520 net.cpp:165] Memory required for data: 117123244
I0412 02:27:10.874208  9520 net.cpp:228] cls_prob does not need backward computation.
I0412 02:27:10.874214  9520 net.cpp:228] bbox_pred does not need backward computation.
I0412 02:27:10.874220  9520 net.cpp:228] cls_score does not need backward computation.
I0412 02:27:10.874224  9520 net.cpp:228] fc7_relu7_0_split does not need backward computation.
…
